pretrained_models/aqua_model.pt (torch, 5606 bytes, 5 tensors)

weight_ih_l0 f4 [16, 20]
00000000: 3a8e a0be d1b6 b6be 46b3 d83e 27c3 333e
00000010: 940e 8a3f 8c72 2a3f 95b8 ea3b f6bb 543e
00000020: 7ebf 85be 0cc4 0340 4591 f93d 9646 1d3f
00000030: 95bf 533f 0096 c73c 7a4c a33d 35e7 0c3f
00000040: 760e edbe cfaa 253f da75 833e e74f c93e
00000050: aa24 afbe 7449 29bf b169 70be 61bf 08bf
00000060: 8f29 e2be 3189 21bf 42a3 e3be ac25 d9bc
00000070: f359 04bf f0e1 9b3f f257 3ebf 4220 05bf
00000080: f1be 09bf 389f 2dbf a09e b4be b707 45bf
00000090: 6521 94be 240e 2cbf 6d02 f1be 55e2 aa3d
000000a0: a187 4a3f a8f9 963f aeb6 823e 91cf 3e3f
000000b0: db84 c03e cb0f 093f 5a50 473f ffd8 6b3f
000000c0: 5df4 693f 8ba8 aabf f857 433f 7517 f43e
000000d0: b4fc 533f 1a5e 603e cfc5 093f 722a f83e
000000e0: 0016 babd 1308 163f 5bd9 633f 91ac 05c0
000000f0: 80b8 ecbd 81e3 bb3e e60a 943e 17d3 00bf
00000100: cda8 bc3e d0ad be3e 2290 e23e 38b2 bfbc
00000110: dafc ca3e f2a7 b2c0 17f3 943e 5c38 673e
00000120: 649f 093f a933 403d a71e 69be e652 9c3c
00000130: 21fb 63be 142f 723d 6ad3 213e e3fc 8ac0
00000140: 22be 8e3e ec66 173f 60c2 133f b810 9b3e
00000150: cffd 3c3f 0fd3 553f 8846 1f3f a1f3 523f
00000160: 0f99 3c3f 9e08 bd3f a8ce 123e 3910 e43d
00000170: dee0 3e3f 0854 67bd 5e42 4b3f 0535 a73d
00000180: 24fb 29be 8a0a 823e dc91 1b3f a6ed 49bd
00000190: c87f 24bf 6195 56bd 0183 c9bc dbda 423e
000001a0: 95a2 a33c bd79 0cbf 7667 0bbf f4e9 7dbe
000001b0: 0116 2fbe 3c8f 6d40 536b 203e d12b 74bf
000001c0: 7f85 ec3d 453a 87be 00c5 68be d0bb 83be
000001d0: 0fb1 20be 5da5 b5be e080 1cbd c9bd 973d
000001e0: 3313 1bbc 7f22 9f3c 4279 4dbf 59b7 3cbf
000001f0: c604 693f a0e0 db3e 76a5 b33e 8a56 2fbe
00000200: 20f5 0bbf 8ea5 1bbf 5eef 783e 73b3 89be
00000210: 60a9 0d3f c9c3 3abe ff12 95bd 2cc2 e53e
00000220: a9f9 083c a567 1bbf f229 32bf 3cab 54c0
00000230: 8efb 8b3e b67c 0dbf 1182 e5be a006 26bf
00000240: bf61 323f 234c 8a3d 7b4d 3d3f 21c4 fb3e
00000250: 8abf f23d 621f 2ac0 73d2 593e f1ea b33e
00000260: df04 383f 4437 ac3d e87b 123f 34d2 483f
00000270: be53 3440 41f1 9e3c e76e debe 7420 1dc0
00000280: f16b c5be 590a 85bd 1f16 1bbf 9d03 813b
00000290: 0f5b 193f 3e1e 363d 03b4 973d ccca aabe
000002a0: 9b8a 9c3d 4c04 ac3e 4e49 093f 76cb 163f
000002b0: e2ee d9bd a9bc 9e3d 4d09 91be 9b80 e33d
000002c0: e3e3 e5be 53ac a6be e532 3fbe 8542 0dbe
000002d0: 276c 2fbe a71f febe 880e c3be 2560 aabe
000002e0: 570b 1b3e 2908 24bf bbdb 23bf 1d58 39bf
000002f0: 16f5 9d3e e568 5a3f ff11 dfbe 5250 54be
00000300: 0a82 95be 10df 17be d839 a7bd 774c 3cbf
00000310: 564d 403e defc 20bf 0cc3 9b3e 8e8a ca3e
00000320: 3e93 ec3c 537a 54bf 5703 c9be e0ff 63bf
00000330: b875 0cbe 7fcf b6bd e9e4 553d e9c6 163f
00000340: 9c29 50bf 2342 b8c0 f730 043d cc8e 943e
00000350: 9ff2 563e 3781 cbbe dd92 30be 502f 953e
00000360: bc6b 0b3e 2056 07be 55bd 1bbe 4f85 d7bf
00000370: 1ddf 03be 2854 89be d89f 16bf 6803 7cbe
00000380: c7c8 17bd 4fa9 aabd 251c 81be a9d7 28bf
00000390: 8074 903d e2ca d5c0 ca00 5abe 8550 5fbe
000003a0: 7629 d5be dbd2 0bbf 28de c33d beed 13bf
000003b0: a7bf 63be 21a3 0abf f423 76be 2b00 6d3e
000003c0: ec3d 033e d568 883e 7dc2 bfbc 02df 033d
000003d0: 082d e53f b8d9 533f 8085 8dbc 4c78 413f
000003e0: 3c02 36be bb5b 1a40 a24d e13e 3ee3 263f
000003f0: 86e8 2e3f c66e 5abc 216b 223c 3f52 7f3e
-0.3135851 -0.35686353 0.42324275 0.17554913 1.0785699 0.66581035 0.007163117 0.20774826
-0.2612266 2.0588408 0.12185911 0.6143583 0.82714206 0.024363518 0.07973571 0.55040294
-0.46300095 0.6471376 0.2567585 0.39318773 -0.3420766 -0.66127706 -0.23477818 -0.5341702
-0.44172332 -0.6309996 -0.44460493 -0.026507221 -0.5169975 1.2178326 -0.74352944 -0.52002347
-0.5380698 -0.67821074 -0.3527727 -0.76964897 -0.28931728 -0.67209077 -0.47072163 0.08343951
0.79113203 1.1794939 0.2553 0.7453547 0.3760136 0.53539723 0.7785698 0.92127985
0.91388494 -1.3332685 0.76306105 0.47674146 0.8280747 0.21910897 0.53817457 0.48469883
-0.090862274 0.5860607 0.89003533 -2.0886576 -0.11558628 0.3669701 0.28914565 -0.503221
0.36847535 0.37241983 0.4425059 -0.023400411 0.39646035 -5.583001 0.29091713 0.22580093
0.53758836 0.046924267 -0.22765599 0.019082498 -0.22263767 0.05912693 0.15803304 -4.34337
0.27879435 0.5914142 0.5771847 0.30286193 0.7382478 0.83525175 0.62217 0.82403
0.7367105 1.4768255 0.14336646 0.11135907 0.7456187 -0.056476623 0.79398143 0.081644095
-0.16599709 0.25398666 0.6076944 -0.049298905 -0.6425748 -0.052388553 -0.0245986 0.19028799
0.019974986 -0.5487326 -0.54454744 -0.24796277 -0.17098238 3.7118673 0.15665941 -0.9537936
0.115489 -0.26411644 -0.227314 -0.25729227 -0.15692542 -0.35477725 -0.038208842 0.074092455
-0.009465027 0.019425629 -0.8026315 -0.73717266 0.9102291 0.42944813 0.35087174 -0.17122856
-0.54670906 -0.6079949 0.24310061 -0.2689472 0.5533657 -0.18238749 -0.07279014 0.44874704
0.008360305 -0.60705024 -0.69595253 -3.3229513 0.27340358 -0.5526842 -0.44825795 -0.6485386
0.696804 0.06752803 0.7394635 0.49173072 0.118529394 -2.6581655 0.21271686 0.35140184
0.7188243 0.084089786 0.57220316 0.78445745 2.8176112 0.019402148 -0.43443987 -2.4551058
-0.38558915 -0.06496114 -0.6058063 0.0039371983 0.5990457 0.044462435 0.074073814 -0.33357847
0.076436244 0.33597028 0.5362748 0.58904207 -0.106412664 0.07750828 -0.28327408 0.11108514
-0.44900426 -0.32553348 -0.18671758 -0.13794906 -0.171311 -0.49633524 -0.38097024 -0.33276477
0.15141045 -0.6407495 -0.6400716 -0.72400075 0.30851048 0.85316306 -0.43568417 -0.20733765
-0.29200774 -0.14831185 -0.0816533 -0.73554176 0.18779501 -0.62885845 0.30422246 0.39558834
0.028878804 -0.8299915 -0.3926036 -0.8906231 -0.13716781 -0.089262955 0.05222026 0.5889726
-0.8131349 -5.7580733 0.03227326 0.29015195 0.2099099 -0.3974702 -0.17243524 0.2913766
0.13615316 -0.13216448 -0.15208943 -1.6837558 -0.1287808 -0.2682202 -0.5883765 -0.24610674
-0.03705671 -0.08333074 -0.25216785 -0.6595407 0.070534706 -6.681016 -0.21289364 -0.2180806
-0.41633195 -0.54618615 0.09563857 -0.5778464 -0.22241078 -0.54155165 -0.24037153 0.23144595
0.1281659 0.2664248 -0.023408169 0.0321951 1.7904367 0.8275409 -0.017275572 0.75574183
-0.1777429 2.4118488 0.44004542 0.65190494 0.6832355 -0.0133320745 0.009913237 0.24933718

weight_hh_l0 f4 [16, 4]
00000000: ae84 24bf 7a80 0b3e fe39 bbbe a9ac 43bf
00000010: 7667 a6bd b535 dbbd 84e5 e73f 90b0 ee3d
00000020: e454 07be 4dc4 d9bf a55d 923f 0f2b 2bbe
00000030: de2f 24bf c34a 023e cd85 7dbf 9e43 053e
00000040: 7108 babc de3b 78be 42d9 8dbe 6af6 a2be
00000050: 3161 a83d bf61 76bf fd82 f93f 96ee 983f
00000060: 4f17 4c3f 35ea f9bf 229e e43e 898f 523f
00000070: 5210 f0bc e825 46bf bcbd cebf 45bb 16bf
00000080: 5b66 42be 62c5 f2bd 9dd6 953e 5576 10bf
00000090: b435 ed3e 84ac 47be e9bf 363f 41ad 523e
000000a0: bcf9 213f da73 07bf 53af 393e 1eca 773e
000000b0: 9d26 833e 6b4f a83f d6b7 a0bd 713a 1a3d
000000c0: aada 5fbf 6a3e f63e 440a 5ebe 90a9 40bf
000000d0: 4bfe bd3f 489a dd3c 131b ec3f c27f ebbe
000000e0: 7cb9 f83d af39 77bf 65c7 b5bd 1217 2e3e
000000f0: fe70 80be b191 573f 7fa9 ffbf 92c9 a3bf
-0.64264953 0.13623229 -0.36567682 -0.76435333 -0.08125202 -0.10703603 1.8116918 0.116547704
-0.13215977 -1.7013031 1.1434828 -0.16715644 -0.6413554 0.12723832 -0.9903229 0.13014075
-0.022709103 -0.24241588 -0.27704817 -0.31828624 0.08221663 -0.962429 1.94931 1.1947811
0.79723066 -1.9524599 0.44651896 0.8225027 -0.029304657 -0.7740159 -1.6151652 -0.588795
-0.18984358 -0.11854054 0.292653 -0.5643056 0.46330035 -0.19499403 0.7138658 0.20573904
0.6327169 -0.5291115 0.18133287 0.24198195 0.25615397 1.3149236 -0.07847564 0.03765339
-0.8744303 0.48094493 -0.21683604 -0.7525873 1.4843229 0.027051106 1.8445762 -0.4599591
0.12144753 -0.96572393 -0.08875922 0.17000988 -0.25086206 0.8420668 -1.9973601 -1.2795889

bias_ih_l0 f4 [16]
00000000: 3ac7 2cbf 29c3 323f 4d17 00bf e60e 863d
00000010: dd81 debe e755 fd3e a615 bdbe a9af 08bf
00000020: c50b aa3e af2e 993e 4981 063f 31f3 3a3e
00000030: 0aad c8be f270 13bf f625 e13e 09d2 2f3f
-0.67491496 0.6982904 -0.50035554 0.065458104 -0.43458453 0.494796 -0.3693058 -0.53393036
0.33212104 0.2991843 0.52541023 0.18256833 -0.39194518 -0.57594216 0.43974274 0.68679863

bias_hh_l0 f4 [16]
00000000: 9163 abbe b10e 923e 05d2 f9bd 7f3d 613e
00000010: 8f76 5cbf 55cb 63be 9c4a f7be 3714 82be
00000020: 288e 37be 3d6b cd3e dda6 553e 2dad 163f
00000030: e4c2 05bf f4df 91bc 2a6c 023f 842f da3d
-0.334744 0.28526834 -0.12198261 0.21996115 -0.86118406 -0.22245534 -0.4829911 -0.25406048
-0.17925322 0.4012088 0.20864435 0.58857995 -0.52250504 -0.017806984 0.50946295 0.10653594

weight f4 [1, 4]
00000000: d2e3 a2bd 7d9f 553f 9d48 b9be 47ae 9bbf
-0.079536095 0.83446485 -0.36188212 -1.216256
