pretrained_models/flot_model.pt (torch, 5670 bytes, 5 tensors)

weight_ih_l0 f4 [16, 20]
0	0x3f4b78c8	0.7948117
1	0x3ede59e1	0.43427947
2	0x3ea01517	0.3126609
3	0x3f8158af	1.0105189
4	0x3ed4f022	0.41589457
5	0xbfbcfce3	-1.4764675
6	0xbf3ae49d	-0.73005086
7	0xbfa6b9a5	-1.3025404
8	0x3d9a713c	0.07541129
9	0x40113047	2.2685716
10	0xbfb102e4	-1.3829007
11	0xbfc1055d	-1.5079762
12	0xbf442bad	-0.76629144
13	0xbde3a5f0	-0.111156344
14	0xbff60ee6	-1.9223297
15	0xbebb4421	-0.36575416
16	0xbf8d2fdd	-1.1030232
17	0x3f43f392	0.76543534
18	0x3f1c7e52	0.6113025
19	0x3eed5d97	0.46360466
20	0xbf2c0de5	-0.672087
21	0x3e58f11f	0.2118573
22	0x3ebe8803	0.37213144
23	0xbdb6c174	-0.08923617
24	0x3f183b6a	0.5946566
25	0xbe30c534	-0.17262727
26	0x3d7160e4	0.058930293
27	0xbe558d5f	-0.2085471
28	0xbe17f73e	-0.14840409
29	0x40d71f6a	6.7225847
30	0x3f2b5e80	0.6694107
31	0xbd8f07c5	-0.06983904
32	0x3eddc7a7	0.43316385
33	0x3db8f58d	0.0903121
34	0x3ea35b96	0.31905812
35	0x3f388b96	0.7208799
36	0x3e1ab970	0.15109801
37	0xbd2d0cfc	-0.04224871
38	0xbefa6569	-0.48905495
39	0x4082e566	4.0905027
40	0xbf2c76ce	-0.6736878
41	0xbf24e56d	-0.64412576
42	0xbf47e9db	-0.7809121
43	0xbf217b1e	-0.63078487
44	0xbeb219ec	-0.34785402
45	0xbf6a5efe	-0.91551197
46	0xbf2cde9e	-0.67527187
47	0x3cda347e	0.026636358
48	0xbe3748dc	-0.17898887
49	0xc0a43964	-5.1320057
50	0xbf355fb8	-0.7084918
51	0xbf034df7	-0.5129084
52	0xbf5d4b22	-0.8644277
53	0xbe053987	-0.13010226
54	0xbde9f49d	-0.114236094
55	0xbe026429	-0.1273352
56	0x3f05ff34	0.52342534
57	0xbf7b148d	-0.98078233
58	0xbe8def02	-0.2772141
59	0xbede3a57	-0.43403885
60	0x3e529ea5	0.2056833
61	0x3ee9d37e	0.45669168
62	0x3f70ad3e	0.94014347
63	0x3e6184c3	0.22023301
64	0xbf083cb4	-0.53217626
65	0xbf1c9f1a	-0.6118027
66	0xbf1ed609	-0.6204534
67	0xbdba4a3a	-0.09096189
68	0x3ee370c0	0.4442196
69	0xbf19a2b0	-0.60013866
70	0x3d986548	0.07441193
71	0xbe64e208	-0.22351849
72	0xbedb3852	-0.42816406
73	0xbf2d6fec	-0.67748904
74	0xbe751036	-0.23931965
75	0xbf6b85e0	-0.9200115
76	0x3f93ef87	1.1557473
77	0x3f1d03db	0.6133401
78	0x3e4c0e79	0.19927396
79	0xc0031f96	-2.0488029
80	0x3eeb6d49	0.45981815
81	0x3e787f4c	0.2426731
82	0x3e31d5b3	0.17366676
83	0x3ee3649a	0.4441269
84	0x3f496e5f	0.7868404
85	0x3f4ebb2c	0.8075435
86	0x3ee91714	0.4552542
87	0x3f013b6e	0.5048131
88	0x3d1370e3	0.03599633
89	0x40727394	3.7883043
90	0x3eb4ef74	0.35338938
91	0xbe92b746	-0.28655452
92	0x3f2efd1f	0.6835498
93	0xbd9eea10	-0.07759488
94	0x3e3a8792	0.18215778
95	0x3e5b8b1a	0.21439782
96	0x3fcb83c2	1.5899584
97	0x3f49cd8b	0.7882926
98	0x3e99ebfa	0.30062848
99	0x3e9937e5	0.29925457
100	0x3e495876	0.19662651
101	0x3efba7c9	0.49151447
102	0x3f7c7066	0.98609006
103	0x3f95d84f	1.1706637
104	0x3f7329bd	0.9498556
105	0x3ec135b4	0.37736285
106	0x3f8eadae	1.1146753
107	0x3dc43362	0.09580113
108	0x3f54d5f6	0.8313898
109	0x403b9248	2.9308033
110	0x3f815b2a	1.0105946
111	0xbe0b4cf2	-0.13603571
112	0x3f82c204	1.0215459
113	0x3f017fd4	0.50585675
114	0x3eecef1a	0.4627617
115	0x3f3419b2	0.7035171
116	0x3fdf5a43	1.7449421
117	0x3f55cd12	0.8351604
118	0x3f09961c	0.53744674
119	0x4007254c	2.1116514
120	0x3df7d714	0.1210157
121	0x3c577959	0.01315149
122	0xbf3f01cf	-0.74612135
123	0xbf388781	-0.7208176
124	0x3d889f2c	0.066709846
125	0xbf07b48f	-0.53009886
126	0xbd81e44a	-0.06342371
127	0x3ef23755	0.4730784
128	0xbe50847a	-0.20363036
129	0xc0a54b01	-5.1654058
130	0xbeec8ef3	-0.46202812
131	0xbe3a5926	-0.1819807
132	0x3eeb1dff	0.45921323
133	0x3e9d44ea	0.3071664
134	0xbdb52da0	-0.08846593
135	0x3eebbbbc	0.46041667
136	0xbf27214c	-0.6528518
137	0xbf20f0db	-0.62867516
138	0xbed4eeae	-0.41588348
139	0xc0378f2a	-2.868113
140	0xb89faf00	-7.614307e-05
141	0xbf22eaca	-0.6363951
142	0x3d6de4fb	0.0580797
143	0xbec1d7fe	-0.378601
144	0xbdd46d44	-0.10372403
145	0x3fae29da	1.3606522
146	0x3f1929fe	0.598297
147	0x3f574d87	0.8410267
148	0xbf2940b9	-0.66114384
149	0xbe718014	-0.23584014
150	0x3f0a0748	0.5391736
151	0x3fa14242	1.2598345
152	0x3f3750c8	0.7160764
153	0xbe953657	-0.2914302
154	0x3ffef25f	1.9917716
155	0xbf00bae8	-0.50285196
156	0xbdbc0760	-0.09181094
157	0x3d0c6355	0.034274418
158	0xbecb823b	-0.39747795
159	0xbfd3760e	-1.6520402
160	0x3f3da085	0.7407306
161	0x3fa4cecd	1.287561
162	0x3f6bb69b	0.9207551
163	0x3eb8d81e	0.36102384
164	0x3c97035a	0.018434215
165	0x3f7034e6	0.93830717
166	0x3ec026b4	0.37529528
167	0x3f4c8a13	0.79898185
168	0x3f433163	0.76247233
169	0xc000563d	-2.0052636
170	0x3e8c4b1c	0.27401054
171	0x3fb06399	1.3780395
172	0x3ecf8760	0.4053297
173	0x3f3d0e40	0.7384987
174	0xbe621c90	-0.22081208
175	0x3f7cc8ea	0.9874407
176	0xc005b081	-2.088898
177	0x3f235a35	0.6380952
178	0x3f912bf5	1.134154
179	0x405bda5a	3.4352021
180	0xbcb20e6f	-0.021735398
181	0xbe119a0d	-0.14218922
182	0x3cf01c26	0.029310297
183	0xbc6c58d5	-0.014425476
184	0xbeccbe8e	-0.39989132
185	0xbf2a8749	-0.6661268
186	0xbf1d378e	-0.61412895
187	0xbee413e6	-0.4454643
188	0xbf5b2268	-0.85599375
189	0x3fe82fd9	1.8139602
190	0xbf383cd9	-0.71967846
191	0xbfb8a429	-1.4425098
192	0x3de9439a	0.11389847
193	0xbef54b44	-0.47908986
194	0xbec5ca9b	-0.38631138
195	0xbf010578	-0.5039897
196	0x3f53f718	0.8279891
197	0xbf277984	-0.65419793
198	0xbf0dba22	-0.5536214
199	0xbebcb5f5	-0.36857572
200	0xbe8da228	-0.27662778
201	0xbf84e91f	-1.0383643
202	0xbea824dd	-0.32840624
203	0xbea8430e	-0.3286366
204	0x3d5bf1c0	0.053697348
205	0xbe96f98b	-0.2948726
206	0xbf467828	-0.77527094
207	0xbf3b337e	-0.73125446
208	0xbeb00177	-0.34376118
209	0xbff7fd02	-1.9374087
210	0xbf0e8477	-0.55670875
211	0xbf42d8c1	-0.7611199
212	0xbf9a4cb9	-1.2054664
213	0xbf0c17e5	-0.5472396
214	0xbf5e4902	-0.8683015
215	0xbee13c39	-0.4399126
216	0xbe856fa7	-0.26061746
217	0xbf8dbc2c	-1.107305
218	0xbf4b1108	-0.7932286
219	0x3ef3073c	0.47466457
220	0xbf4914c8	-0.78547335
221	0xbf25b735	-0.64732677
222	0xbf6adaa1	-0.9173985
223	0xbf53db12	-0.8275615
224	0x3f5e80f8	0.8691554
225	0x3ecffbde	0.40621847
226	0x3f2014fc	0.6253202
227	0xbe7ae94a	-0.24503055
228	0xbf2f40f9	-0.68458515
229	0xc0075d9a	-2.115088
230	0x3cd3bf0e	0.025847938
231	0xbe8238f7	-0.25434086
232	0xbe28ff24	-0.16503578
233	0x3f39a06e	0.7251042
234	0xbe368f1a	-0.17828026
235	0x3f93a2b7	1.1534032
236	0xbf0e95be	-0.5569724
237	0xbf989b40	-1.1922379
238	0xbf21218d	-0.6294182
239	0x3f5e0a8c	0.86734843
240	0x3ee41230	0.44545126
241	0x3dc23e7b	0.094845735
242	0x3e0a8158	0.13525903
243	0x3f08c20a	0.5342108
244	0x3e511106	0.2041665
245	0x3d24b3ea	0.040210642
246	0x3ed3567d	0.41276923
247	0x3f0ca6db	0.549421
248	0x3e103ddd	0.14086099
249	0x4050d496	3.2629752
250	0xbd0344ff	-0.03204822
251	0x3df1eec1	0.11813117
252	0x3e8f665a	0.28007776
253	0x3f191f0f	0.59813017
254	0x3ee19b40	0.4406376
255	0x3ebafff1	0.36523393

weight_hh_l0 f4 [16, 4]
0	0x3f421ab2	0.75821984
1	0xbfa0285a	-1.2512314
2	0xbebc34e5	-0.36759105
3	0x3f3422ff	0.703659
4	0x3f714b8a	0.9425589
5	0xbfa97a78	-1.32405
6	0xbae205ee	-0.0017244199
7	0x3fcf4568	1.6193056
8	0xc0649859	-3.5717986
9	0x4015be9e	2.3397593
10	0xbff86e39	-1.9408637
11	0xbf0cebfd	-0.5504759
12	0xbda30bcc	-0.079612345
13	0x3f3eb259	0.74490887
14	0x3de87ee9	0.11352331
15	0x3e83594d	0.2565407
16	0x3f8ddf54	1.1083779
17	0xbfd4b164	-1.6616635
18	0x3f9bfbe6	1.2186248
19	0x3f6041b6	0.87600267
20	0x3f8d994b	1.1062406
21	0xbe72f565	-0.23726423
22	0xbfb7fa21	-1.4373208
23	0x3ed86261	0.42262557
24	0x3d7dd33e	0.061969034
25	0x3fee1dfb	1.8602899
26	0xbfb9763a	-1.4489205
27	0x3e94e04d	0.29077378
28	0xbe31fbc7	-0.17381202
29	0x3eaacbd8	0.33358645
30	0x3ed7b8a0	0.42133045
31	0xbe8077ff	-0.2509155
32	0xbf6ffd33	-0.93745726
33	0x3f1f0d70	0.6212988
34	0xbfdcc6a8	-1.7248125
35	0xbf733ddb	-0.9501626
36	0x3f58d18f	0.8469476
37	0xbf157400	-0.58380127
38	0x3f64976b	0.89293545
39	0x3f1718d3	0.59022254
40	0xbf43730a	-0.7634741
41	0x3fd6bf8e	1.6777208
42	0xbf9dd9eb	-1.2332128
43	0xbf3c09f2	-0.73452675
44	0xbc8c5989	-0.017132537
45	0xbf1e249a	-0.617746
46	0xbfb8bef2	-1.4433272
47	0xbf5c2790	-0.8599787
48	0x3f4a0c07	0.789246
49	0xbefa6d37	-0.4891145
50	0x3e0144db	0.12623923
51	0x3f0520a4	0.5200293
52	0x3fa49a36	1.2859561
53	0xbf99510a	-1.1977856
54	0xbf47fdc4	-0.7812159
55	0x3f6a17f2	0.9144279
56	0x3e6a7aac	0.22898358
57	0xbf398ddd	-0.7248209
58	0xbf567aba	-0.83781016
59	0xbf958274	-1.1680436
60	0x3f20d885	0.6283038
61	0xbfc2b891	-1.5212575
62	0x3ea4a5ca	0.32157737
63	0xbd9ad6f7	-0.075605325

bias_ih_l0 f4 [16]
0	0xbec93a66	-0.39302367
1	0xbf28f70f	-0.6600198
2	0x3ef6095b	0.48054013
3	0x3f90bdab	1.1307882
4	0xbef6baab	-0.4818929
5	0xbfa6ae91	-1.3022023
6	0xbf1f6449	-0.622624
7	0x3f422b38	0.75847197
8	0xbe88e7a1	-0.2673922
9	0x3edaf70f	0.42766616
10	0x3ee0dc1e	0.43917936
11	0xbf91c8fd	-1.1389462
12	0x3a24b886	0.00062835997
13	0xbf36b978	-0.7137675
14	0xbeb0785c	-0.34466827
15	0xbf52be33	-0.8232147

bias_hh_l0 f4 [16]
0	0xbcd6a3a0	-0.02620107
1	0xbe1cc922	-0.15311101
2	0x3ee0eba5	0.43929783
3	0x3f6b30ce	0.91871345
4	0xbf27e6b6	-0.6558641
5	0xbf52bf07	-0.82322735
6	0xbeb868a6	-0.3601734
7	0x3f5c07e3	0.85949534
8	0xbd15b0e8	-0.036545664
9	0x3ee925d9	0.45536688
10	0x3f3a104b	0.7268111
11	0xbfa1df4b	-1.2646269
12	0xbf1167ca	-0.56798995
13	0xbe3abe68	-0.18236697
14	0x3d4a893a	0.049447276
15	0xbf4c3e57	-0.79782623

weight f4 [1, 4]
0	0xbec1bc39	-0.37838915
1	0x3fa04dba	1.252372
2	0xbf5b4060	-0.85645103
3	0xbe1a95b6	-0.15096173
