pretrained_models/mgnt_model.pt (torch, 17510 bytes, 5 tensors)

weight_ih_l0 f4 [80, 20]
0	0xbdb0e70b	-0.08637818
1	0xbec55056	-0.38537854
2	0xbe87251f	-0.2639551
3	0xbeccc578	-0.39994407
4	0x3fa084db	1.2540544
5	0x3eee0f0a	0.4649585
6	0x3ec6be32	0.38816983
7	0x3f098528	0.53718805
8	0xbdcae1b2	-0.09906329
9	0x3f70bfb9	0.94042546
10	0x3f2914f7	0.66047615
11	0x3f215446	0.63019216
12	0x3e38a6e2	0.1803241
13	0x3f1136ec	0.5672443
14	0x3d0f513f	0.03498959
15	0x3ed9a323	0.42507276
16	0x3e05164c	0.12996787
17	0xbe859913	-0.2609335
18	0xbdf24e2c	-0.11831316
19	0xbf4b804c	-0.7949264
20	0xbe62237f	-0.22083853
21	0xbf29fecd	-0.6640442
22	0xbeeae9bf	-0.4588146
23	0xbf50517a	-0.81374323
24	0x3ff54c12	1.916384
25	0x3e6fcf34	0.23418885
26	0xbc89e2aa	-0.016831715
27	0x3c0d2d7a	0.0086167995
28	0xbf219e11	-0.63131815
29	0xbf8e934f	-1.1138705
30	0x3e93412d	0.28760663
31	0x3d9b7a59	0.07591695
32	0x3e3b6df1	0.18303658
33	0xbe4a8aff	-0.19779585
34	0xbd9e7cfd	-0.077386834
35	0x3e638e97	0.22222362
36	0xbf839406	-1.0279548
37	0xbed942dc	-0.42433822
38	0xbf00c886	-0.50305974
39	0x3ee40d34	0.44541323
40	0xbe944edb	-0.28966412
41	0xbd9e2e0f	-0.07723629
42	0x3d77ba36	0.06048032
43	0xbdc76840	-0.09736681
44	0x3f187538	0.5955386
45	0x3f401429	0.7503076
46	0x3ca88e3e	0.020575639
47	0x3f5c992c	0.8617122
48	0xbe8b2b2d	-0.27181378
49	0x3f8afd36	1.0858524
50	0x3f7b9aa5	0.98282844
51	0x3efe8a43	0.4971486
52	0x3c38ec6a	0.011286834
53	0x3e5019a0	0.20322275
54	0x3e67bfca	0.22631755
55	0x3f5e7e14	0.8691113
56	0xbf653e6b	-0.8954837
57	0xbe8710d9	-0.2638004
58	0x3e001275	0.12507041
59	0x3fb9814e	1.4492586
60	0x3ea9fa2f	0.33198687
61	0x3e6c13cb	0.23054425
62	0x3eb73aeb	0.35787138
63	0x3e3938c1	0.18088056
64	0x3f8205d8	1.0158033
65	0xbeec3f23	-0.4614192
66	0xbf0f0d56	-0.55879724
67	0xbdf896d1	-0.12138141
68	0x3e228635	0.15871508
69	0x3d1af2c1	0.037829164
70	0xbede3010	-0.43396044
71	0xbea31074	-0.3184849
72	0xbf51ed09	-0.8200231
73	0xbed23ae6	-0.4106056
74	0xbf4a2f95	-0.78978854
75	0xbee916fc	-0.45525348
76	0xbf926e71	-1.1439954
77	0x3e010ca6	0.12602481
78	0x3e887103	0.2664872
79	0x40034ff4	2.051755
80	0xbebb6b79	-0.36605433
81	0xbe0976c2	-0.13424209
82	0xbe8ff916	-0.28119725
83	0xbe9ebf5f	-0.3100538
84	0x3f82835d	1.0196339
85	0x3e58b267	0.21161805
86	0x3d76384f	0.060112294
87	0x3f03835c	0.51372313
88	0xbe99f823	-0.30072126
89	0x401255e3	2.286492
90	0x3ec53785	0.3851892
91	0x3f15ac46	0.58465993
92	0xbdbeb234	-0.09311333
93	0x3d1095ec	0.035299227
94	0x3d2cddc5	0.042203683
95	0x3e2012a5	0.15632112
96	0xbf1b2e13	-0.6061718
97	0xbeb27da7	-0.3486149
98	0xbede6acd	-0.43440858
99	0x3fe2d04c	1.7719817
100	0x3e7c1722	0.246182
101	0x3ed4569a	0.41472322
102	0x3df9b52e	0.121927604
103	0x3f034c7c	0.5128858
104	0x3fcb1a6a	1.5867436
105	0x3ed84d73	0.4224659
106	0x3ef79b81	0.48360828
107	0x3f1c2a66	0.61002195
108	0x3e6cbc8e	0.23118803
109	0x402c8684	2.6957102
110	0x3ef7d259	0.4840267
111	0x3f02dc3e	0.5111731
112	0x3f3b88af	0.7325544
113	0x3f204557	0.62605804
114	0x3ed8a63e	0.42314333
115	0x3f0f4e1e	0.5597857
116	0xbfca75d0	-1.5817204
117	0x3f18146a	0.5940615
118	0x3f07a169	0.5298067
119	0x3fa40ea0	1.2816963
120	0xbdd9bd82	-0.10631849
121	0xbf094700	-0.5362396
122	0xbe163ba9	-0.14671196
123	0xbe827b12	-0.2548452
124	0x3ffef0a9	1.9917194
125	0x3eed2da3	0.4632388
126	0x3f0483f0	0.5176382
127	0x3f44fe28	0.7695031
128	0xbe9fd1ca	-0.31214744
129	0xbed15d2d	-0.408914
130	0x3f22178d	0.63317186
131	0x3f5d3979	0.8641582
132	0x3f068900	0.52552795
133	0x3f864748	1.0490503
134	0x3e857bc7	0.26070997
135	0x3f5395ef	0.82650656
136	0xbf158c6e	-0.58417404
137	0xbed36f8d	-0.41296044
138	0xbe4f5fd5	-0.20251401
139	0x3f7ce437	0.9878573
140	0xbb9999e5	-0.004687535
141	0xbe31b8ea	-0.17355695
142	0xbd51cf15	-0.05122288
143	0x3e037d9c	0.12840885
144	0x3f7fb861	0.99890715
145	0x3e801a56	0.25020093
146	0x3e921d0f	0.28537795
147	0x3f6275f2	0.8846122
148	0xbe7f74a8	-0.24946845
149	0x3fb0ad47	1.380288
150	0x3f0670e9	0.5251604
151	0x3f699741	0.9124642
152	0x3e2751cd	0.16339798
153	0x3eb53ca3	0.35397825
154	0x3edbdf91	0.42944005
155	0x3f3401fd	0.70315534
156	0xbdf43718	-0.11924571
157	0xbe0d2ff0	-0.13787818
158	0xbe0cd514	-0.13753158
159	0x3f91dd0c	1.1395583
160	0x3e22be2b	0.15892856
161	0x3e53a4ba	0.20668307
162	0x3df163f0	0.1178664
163	0x3e4c0a65	0.1992584
164	0x3d912b82	0.070883766
165	0x3f6928d9	0.91077954
166	0x3f2d8517	0.67781204
167	0x3f70c31f	0.9404773
168	0x3e7c5e32	0.24645308
169	0x3f6bb98f	0.92080015
170	0x3f8d5d40	1.1044083
171	0x3f575efb	0.84129304
172	0x3f8bef83	1.0932468
173	0x3f372174	0.7153542
174	0x3f6246cb	0.8838927
175	0x3f4efffb	0.80859345
176	0xbe167fb7	-0.14697157
177	0x3dcf5995	0.10124508
178	0x3eee0b83	0.46493158
179	0x406a2d44	3.6590128
180	0x3f0b596d	0.5443333
181	0xbda3a35c	-0.07990143
182	0xbd091bef	-0.033473905
183	0xbe20b45d	-0.15693803
184	0xbf815075	-1.0102679
185	0xbec917b8	-0.39275908
186	0xbe385e04	-0.18004614
187	0xbe3307cf	-0.17483447
188	0x3e8c6b7d	0.27425757
189	0xbfe73c7a	-1.8065331
190	0xbeb1f1b2	-0.3475471
191	0xbe73e4aa	-0.23817697
192	0x3d5deec6	0.05418279
193	0xbd4e17ae	-0.05031555
194	0xbeacb226	-0.33729666
195	0xbf1cbd6b	-0.6122653
196	0xbe05db6b	-0.13071983
197	0x3d38ce84	0.045118824
198	0x3e218b28	0.1577574
199	0xc0abf229	-5.3733106
200	0x3f4f0499	0.8086639
201	0x3f3b2b0f	0.7311258
202	0x3f1b82b4	0.6074631
203	0x3e8ce767	0.27520296
204	0x3fbcc032	1.4746153
205	0x3f097716	0.53697336
206	0x3f0f28cb	0.5592162
207	0x3f0a5f24	0.54051423
208	0x3ee0a298	0.4387405
209	0xbf1977fb	-0.599487
210	0x3ef81fcd	0.48461762
211	0x3f713ed3	0.9423649
212	0x3f4ca329	0.7993646
213	0x3f4afadb	0.79289025
214	0x3f42d177	0.7610087
215	0x3efda307	0.49538442
216	0x3fbecc13	1.4906029
217	0x3f32dda9	0.69869477
218	0x3f37b17a	0.7175518
219	0xc06ae4b8	-3.67021
220	0x3dad543d	0.08463333
221	0xbb185d3f	-0.0023248938
222	0x3d8e5d8e	0.06951438
223	0xbd074d1d	-0.033032525
224	0x401cc989	2.4498007
225	0x3f0242a5	0.5088294
226	0x3ebc61fc	0.36793506
227	0x3f820f17	1.0160855
228	0xbd97162f	-0.07377278
229	0x3f26ac41	0.6510659
230	0x3f33c071	0.7021552
231	0x3f488f05	0.7834323
232	0x3e9372b2	0.28798443
233	0x3e994b81	0.29940417
234	0x3f0a43e5	0.5400985
235	0x3ef53e14	0.47898924
236	0xbf08d0cd	-0.53443605
237	0xbdb8a715	-0.09016243
238	0x3daf76b9	0.085675664
239	0x3e75ef5e	0.24017093
240	0x3e8c882a	0.27447635
241	0x3db28a87	0.08717828
242	0xbd30ec33	-0.043194007
243	0xbe239903	-0.15976338
244	0x3fcf9317	1.6216763
245	0x3f77e034	0.9682648
246	0x3f3655ac	0.71224475
247	0x3f992053	1.196299
248	0x3e14fd70	0.14549804
249	0x3f3380b3	0.70118254
250	0x3f606203	0.87649554
251	0x3f95b924	1.1697125
252	0x3f304013	0.6884777
253	0x3f5ebf81	0.8701096
254	0x3ee4b0ca	0.4466613
255	0x3f5fde72	0.874488

weight_hh_l0 f4 [80, 20]
0	0x3f3d59e0	0.73965263
1	0xbeb18ba4	-0.3467685
2	0x3e736925	0.23770578
3	0x3ef36f53	0.4754587
4	0xbdca3901	-0.09874154
5	0xbda6217d	-0.08111856
6	0xbe3dee7e	-0.18548009
7	0x3c317d5f	0.010833113
8	0xbf026523	-0.5093557
9	0x3fb21177	1.391158
10	0xbde5ea9d	-0.112263896
11	0x3c49d396	0.012318512
12	0xbe4d02b8	-0.20020568
13	0xbced5f83	-0.028976208
14	0x3e67c15e	0.22632357
15	0x3d62d6dd	0.05538069
16	0x3f8a3041	1.0795976
17	0x3efe9786	0.49724978
18	0xbd92a870	-0.07161033
19	0x3d8cbe21	0.06872202
20	0x3e3efaa1	0.18650295
21	0x3eb1ef0b	0.34752688
22	0xbe908afe	-0.28231043
23	0x3e28701b	0.16449015
24	0x3e252244	0.16126353
25	0xbeabb22a	-0.33534366
26	0x3e9e4a97	0.30916283
27	0xbcdec876	-0.027195197
28	0xbe87cfdd	-0.26525775
29	0x3f5c8b57	0.86150116
30	0xbf5835fe	-0.84457386
31	0xbe9ecafc	-0.3101424
32	0xbe64a153	-0.22327165
33	0x3e8907f4	0.2676388
34	0x3eef9675	0.46794477
35	0x3d9d54f7	0.076822214
36	0xbed79753	-0.4210764
37	0x3f5cb73a	0.8621708
38	0xbeb6df35	-0.35717168
39	0xbf86701d	-1.0502964
40	0x3d0075f0	0.031362474
41	0x3ea1429b	0.31496128
42	0xbdf2b8d5	-0.1185166
43	0x3ee55d4c	0.44797742
44	0xbe2f4b2b	-0.17118518
45	0xbd03944e	-0.032123856
46	0x3efa9041	0.48938182
47	0xbccd1ecc	-0.0250391
48	0xbf3592ce	-0.7092713
49	0x3ef5c3dd	0.48000994
50	0xbe8cb081	-0.27478412
51	0xbdc5637b	-0.09638115
52	0xbe1843c8	-0.14869606
53	0x3f23393f	0.63759226
54	0x3d5c0334	0.053713992
55	0xbebf3006	-0.37341326
56	0x3f9a1751	1.2038366
57	0x3e91abb5	0.28451315
58	0x3f066b4e	0.52507484
59	0x3e1c0bef	0.15238927
60	0xbe123a88	-0.1428014
61	0x3e90edcd	0.28306428
62	0xbe8be165	-0.273204
63	0x3eb71fdc	0.35766494
64	0xbf2a2c8d	-0.6647423
65	0x3f04d789	0.5189138
66	0x3f917955	1.1365153
67	0xbddab317	-0.1067869
68	0xbf966771	-1.1750318
69	0xbf51a207	-0.8188786
70	0x3f40b21d	0.7527178
71	0x3e42d314	0.19025832
72	0xbdce5e25	-0.100765504
73	0x3f242eeb	0.6413409
74	0x3ccd66bd	0.025073403
75	0xbef03253	-0.46913394
76	0x3f191687	0.598
77	0xbe95c57a	-0.29252225
78	0x3ec930b3	0.39294967
79	0xbe816273	-0.25270423
80	0x3d508a87	0.05091336
81	0x3eedea98	0.46468043
82	0xbdce1a6b	-0.100636326
83	0x3ead675c	0.3386792
84	0xbf210977	-0.6290507
85	0xbd297e0e	-0.04137998
86	0x3e6f0f0f	0.23345588
87	0xbdf942d5	-0.1217095
88	0xbeb208a7	-0.34772226
89	0x3f125b15	0.5717023
90	0xbca0d09b	-0.01963072
91	0x3db8ceef	0.090238445
92	0xbee900d2	-0.45508438
93	0xbcbb10e8	-0.02283521
94	0xbe6b8f51	-0.2300389
95	0xbd220493	-0.039555144
96	0x3f0d3053	0.5515186
97	0xbdb77eb4	-0.089597136
98	0x3f0a82cc	0.5410583
99	0x3bb63985	0.005561056
100	0xbc7602cb	-0.015015314
101	0x3e05bf43	0.13061242
102	0x3df94414	0.12171188
103	0xbd9b3a32	-0.07579459
104	0xbf01f495	-0.5076383
105	0xbe49e2bc	-0.19715399
106	0x3f0432d0	0.51640034
107	0x3c2e2645	0.010629241
108	0xbf0b12b0	-0.5432539
109	0x3f276b5d	0.653982
110	0xbe3c75ea	-0.18404356
111	0x3ed623dc	0.41824234
112	0xbebd1142	-0.3692723
113	0x3d87fe89	0.066403456
114	0xbe818513	-0.2529684
115	0xbeda768f	-0.42668578
116	0x3ec23f9c	0.37939155
117	0x3e93bf2e	0.28856796
118	0x3f12c3e3	0.5733015
119	0xbe8062cc	-0.25075376
120	0xbece3604	-0.40275586
121	0x3db39909	0.087694235
122	0x3d623e5b	0.055235248
123	0x3ed85941	0.42255595
124	0x3df1a04e	0.11798154
125	0xbe8a8b63	-0.2705947
126	0x3fe52d99	1.790454
127	0x3ef0a2bd	0.4699916
128	0x3e86d9c7	0.26338026
129	0xbea4614d	-0.32105485
130	0xbbdb46a5	-0.006691771
131	0xbef67e1f	-0.48143098
132	0xbdde0e02	-0.108425155
133	0xbe45d1ab	-0.19318263
134	0x3f975d96	1.1825435
135	0xbe733c67	-0.2375351
136	0xbda9ebf5	-0.08296958
137	0x3f285ba4	0.6576483
138	0xbe968270	-0.2939639
139	0xbf8c1dcc	-1.0946593
140	0x3e0e0c3d	0.13871856
141	0xbe03e073	-0.1287859
142	0xbcefef35	-0.029288867
143	0x3ef1e583	0.47245416
144	0xbde75722	-0.11295916
145	0xbd0fe138	-0.035126895
146	0x3e9880bf	0.29785725
147	0x3e739b89	0.237898
148	0xbef36c3f	-0.47543523
149	0x3f9d3c0e	1.2283952
150	0xbef7f3f7	-0.48428318
151	0x3e75501c	0.2395634
152	0xbd98a49c	-0.07453272
153	0xbe8321e9	-0.2561181
154	0xbe8ead01	-0.27866367
155	0xbd790836	-0.060798846
156	0x3f2c1ded	0.67233163
157	0x3f49a6d8	0.7877021
158	0x3d9ea9fd	0.077472664
159	0xbee34105	-0.44385543
160	0x3dd0106a	0.10159381
161	0x3d1675b2	0.036733337
162	0xbdc22f8d	-0.09481726
163	0x3d858f65	0.06521491
164	0xbe1967b2	-0.14980963
165	0x3f4c8559	0.7989097
166	0x3f04add8	0.51827765
167	0x3db1539c	0.08658525
168	0xbf91ace9	-1.1380893
169	0xbf3cf2ee	-0.7380818
170	0x3e62f6b0	0.22164416
171	0x3ed22072	0.4104038
172	0xbd4f3afd	-0.050593365
173	0x3f6d2516	0.92634714
174	0xbd92be07	-0.07165151
175	0xbecc8f38	-0.39953017
176	0xbd24ea40	-0.04026246
177	0x3ca5fd91	0.020262511
178	0x3f0292a4	0.51005006
179	0xbed12287	-0.40846655
180	0xbd4776e6	-0.048697375
181	0x3f6a1d1b	0.9145066
182	0x3e0a5602	0.13509372
183	0x3fc76415	1.5577418
184	0x3d3a1b06	0.045435928
185	0x3ece8bbf	0.40340993
186	0x3d89324d	0.06699047
187	0xbdf45c41	-0.119316585
188	0xbfb3f6e0	-1.4059715
189	0x3f5b5c6c	0.856879
190	0xbe3bad2d	-0.1832778
191	0x3f2a764b	0.6658675
192	0x3e8ff0b1	0.2811332
193	0x3f155242	0.5832864
194	0xbf0442bb	-0.5166432
195	0x3d9931a0	0.07480168
196	0x3f2b7a4e	0.669835
197	0xbe250bf5	-0.16117842
198	0x3d9a85a7	0.075450234
199	0x3f619f16	0.8813337
200	0x3f19a94f	0.6002397
201	0xbec35526	-0.381509
202	0x3e1145d5	0.14186795
203	0x3fc20c32	1.5159972
204	0xbf06209a	-0.52393496
205	0x3e1a916c	0.15094537
206	0xbf67b57a	-0.90511286
207	0x3e19c606	0.15016946
208	0xbf8bf45c	-1.0933948
209	0xbcdd95ed	-0.02704903
210	0xbd40df38	-0.047087878
211	0x3f01650f	0.5054483
212	0xbe231648	-0.15926468
213	0xbdf037bf	-0.11729383
214	0xbe580386	-0.21095094
215	0x3dde84d9	0.108651824
216	0x4097a4e8	4.73888
217	0x3ebdba6d	0.37056294
218	0x3e7e7ab8	0.24851501
219	0x3f83238f	1.0245227
220	0x3da88160	0.08227801
221	0xbee0d76f	-0.43914363
222	0x3e66ac7c	0.22526735
223	0x3f15803d	0.583988
224	0x3d73b941	0.059502844
225	0x3c6f791e	0.014616279
226	0x3e8b93f4	0.27261317
227	0x3dc287b9	0.09498543
228	0xbf2d7196	-0.67751443
229	0x3f0bb6df	0.54575914
230	0xbf0c6f00	-0.5485687
231	0xbddc0e37	-0.10744899
232	0xbe815c85	-0.252659
233	0x3d2d551d	0.0423175
234	0xbe4b1f9c	-0.19836277
235	0xbe0553fb	-0.13020317
236	0x3f60383f	0.87585825
237	0x3f86c8f0	1.0530071
238	0xbe05f667	-0.13082276
239	0xbe38f851	-0.18063475
240	0x3e832fd3	0.25622424
241	0xbe5bad58	-0.21452844
242	0x3e83585a	0.25653344
243	0x3e109575	0.14119513
244	0x3dc4be6f	0.09606635
245	0x3eb5a1c3	0.35474977
246	0x3f07bb07	0.53019756
247	0xbda498f7	-0.08036988
248	0xbe6f35d9	-0.23360385
249	0x3fc12743	1.5090107
250	0xbe874d60	-0.2642622
251	0x3da5d9f0	0.08098209
252	0xbf111b57	-0.5668234
253	0x3d458b88	0.04822877
254	0x3e0cecd5	0.13762219
255	0xbe303735	-0.1720856

bias_ih_l0 f4 [80]
0	0xbff4128a	-1.9068158
1	0xbf4c88c4	-0.7989619
2	0xbf775912	-0.96620286
3	0xbf077c49	-0.5292402
4	0xbfba1fe0	-1.4540977
5	0xbf459087	-0.77173656
6	0xbfb5fc8f	-1.42177
7	0xc00c24f8	-2.1897564
8	0xbf8d71e1	-1.1050378
9	0xbf207086	-0.626717
10	0xbf9021d9	-1.126033
11	0xbf8ce85d	-1.1008412
12	0xc00183fe	-2.0236812
13	0xbff256d5	-1.8932749
14	0xc000671a	-2.0062928
15	0xbfa949e5	-1.3225676
16	0xbc42f1a8	-0.011898436
17	0xbf9d3347	-1.2281274
18	0xbf970560	-1.1798515
19	0xbe71c8e1	-0.23611785
20	0xbf397953	-0.7245075
21	0xbf25fd62	-0.64839756
22	0xbec10aba	-0.37703496
23	0xbfb3c385	-1.4044043
24	0xbf02e960	-0.5113735
25	0xbede3430	-0.4339919
26	0xbf6dd5ba	-0.92904246
27	0xbeb44f04	-0.35216534
28	0xbf149d22	-0.58052266
29	0xbf9baba9	-1.2161762
30	0xbf8e2019	-1.1103545
31	0xbf4e1d0f	-0.8051309
32	0xbe8edd2a	-0.2790311
33	0xbf33c058	-0.7021537
34	0xbed1ae95	-0.40953508
35	0xbe4a5aee	-0.1976125
36	0xbec15a3f	-0.37764165
37	0xbf1f51a3	-0.6223394
38	0xbf3703df	-0.7149028
39	0xc002a27e	-2.0411677
40	0x3f03463c	0.51279044
41	0x3e0de7ed	0.13858004
42	0xbea7362b	-0.32658514
43	0x3d6eeace	0.058329396
44	0xbf174bf5	-0.59100276
45	0x3e5cd58f	0.21565841
46	0x3f44a283	0.76810473
47	0x3e80d912	0.25165612
48	0x3e1f1ec7	0.15539084
49	0x3eead3ab	0.45864615
50	0xbf011348	-0.50420046
51	0xbf33182c	-0.6995876
52	0xbe909e5a	-0.28245813
53	0x3ef275cb	0.47355494
54	0x3ec08db1	0.37608102
55	0xbef67b39	-0.48140886
56	0xbf16a3ef	-0.5884389
57	0x3f0d23cf	0.55132765
58	0x3df6b15b	0.120455466
59	0xbf2a0350	-0.66411304
60	0xbfc7df02	-1.5614932
61	0xbfd7621b	-1.6826814
62	0xbfb1bf34	-1.3886476
63	0xbfbd273a	-1.4777596
64	0xbf8c31b0	-1.0952663
65	0xbf96e053	-1.1787208
66	0xbfddcf2f	-1.7328852
67	0xbfec4660	-1.8458977
68	0xbf1b1ac5	-0.6058772
69	0xbf686361	-0.9077664
70	0xbfaa4d75	-1.3304888
71	0xbfa2ef32	-1.2729247
72	0xbfe7481a	-1.8068879
73	0xbfa1d88e	-1.2644212
74	0xbfcc3689	-1.5954143
75	0xbfe54118	-1.791049
76	0xbe7a25e2	-0.24428514
77	0xbf6e18af	-0.93006414
78	0xbfb5cd6a	-1.4203312
79	0xbeb56d0c	-0.3543476

bias_hh_l0 f4 [80]
0	0xbfec76dd	-1.8473774
1	0xbf33e69e	-0.7027377
2	0xbf8538c0	-1.0407944
3	0xbebb5b3d	-0.36593047
4	0xbf9518ab	-1.1648153
5	0xbf8239b0	-1.0173855
6	0xbfd1f73b	-1.6403574
7	0xbffef40a	-1.9918225
8	0xbf8f7b8c	-1.1209579
9	0xbef94ac3	-0.4868985
10	0xbf79cdcb	-0.9757964
11	0xbfb155c3	-1.3854297
12	0xbffadb04	-1.9598088
13	0xbfcec859	-1.6154891
14	0xbfd0417b	-1.6269983
15	0xbfc45f62	-1.5341609
16	0x3e031c86	0.1280385
17	0xbf97a24c	-1.1846404
18	0xbf8995f4	-1.0748887
19	0xbed8d916	-0.42353123
20	0xbe9d1138	-0.306772
21	0xbf2ab05f	-0.6667537
22	0xbeebbe77	-0.4604375
23	0xbf968c8d	-1.1761643
24	0xbef051de	-0.4693746
25	0xbeecbec2	-0.46239287
26	0xbf543bb9	-0.8290363
27	0xbeb79f84	-0.35863888
28	0xbf07a0f9	-0.5298
29	0xbf9e5331	-1.2369138
30	0xbf562e1f	-0.83664125
31	0xbf5423fd	-0.82867414
32	0xbe725086	-0.2366353
33	0xbee8a7bd	-0.45440474
34	0xbee3589a	-0.44403535
35	0xbed6e43e	-0.4197101
36	0xbf012926	-0.5045341
37	0xbf5af529	-0.85530335
38	0xbf099527	-0.53743213
39	0xc003a82f	-2.05714
40	0x3ed12755	0.4085032
41	0x3df1cafe	0.11806296
42	0xbf232a99	-0.63736874
43	0xbe331144	-0.17487055
44	0xbeec8205	-0.46192947
45	0x3e2ad6f7	0.16683565
46	0x3f4e84c0	0.8067131
47	0x3dbdc28b	0.09265622
48	0xbddf2d8e	-0.10897361
49	0x3f038b9b	0.51384896
50	0xbf028f70	-0.5100012
51	0xbf3e94f3	-0.7444603
52	0xbdd4a425	-0.103828706
53	0x3ed49f6f	0.41527888
54	0x3e15ecbd	0.1464109
55	0xbdc54dc2	-0.09633972
56	0xbf269ad9	-0.6508003
57	0x3f5eba0a	0.87002623
58	0x3ee97ec4	0.45604527
59	0xbf13602c	-0.5756862
60	0xbfe821da	-1.8135331
61	0xbfdfbe09	-1.7479869
62	0xbfa471cb	-1.2847227
63	0xbfc15a76	-1.5105731
64	0xbf88287d	-1.0637356
65	0xbfc26441	-1.5186845
66	0xbfbd9325	-1.481053
67	0xbff497b6	-1.9108799
68	0xbf07159f	-0.52767366
69	0xbf77764d	-0.9666489
70	0xbf8dbace	-1.1072633
71	0xbf978168	-1.1836367
72	0xbffa3f60	-1.955059
73	0xbfad774f	-1.3552035
74	0xbfc708d1	-1.5549566
75	0xbfe1112a	-1.7583363
76	0x3d84c1fc	0.06482312
77	0xbf994d2c	-1.1976676
78	0xbfa12283	-1.2588657
79	0xbea387e2	-0.31939608

weight f4 [1, 20]
0	0x3e1d9784	0.1538983
1	0xbd777480	-0.060413837
2	0x3daed471	0.08536614
3	0x3c982410	0.018571883
4	0x3e26fd37	0.16307531
5	0xbde2b32f	-0.11069333
6	0x3e77cb22	0.24198583
7	0xbdd56966	-0.10420494
8	0x3d81546f	0.063149326
9	0x3f59b4a5	0.85041267
10	0x3d10909a	0.035294153
11	0xbecb924f	-0.39760062
12	0xbe0b13ae	-0.13581726
13	0xbe285d51	-0.16441847
14	0xbe3aeffe	-0.18255612
15	0xbed5d40e	-0.41763347
16	0xbf9fb0fd	-1.2475888
17	0x3e03b0ce	0.12860414
18	0x3d96592a	0.073412254
19	0xbce30d06	-0.027716171
