pretrained_models/moex_model.pt (torch, 5670 bytes, 5 tensors)

weight_ih_l0 f4 [16, 20]
00000000: 440c 43be 90e6 f33d b566 0cbe d443 843d
00000010: 82e4 063f a017 a93e 71fd 1cbe 372f 723d
00000020: 5cfb 44bc ae1a f940 a97f 9d3e c3ab d93e
00000030: 76a7 683e be9c b13e d5ce 03be 44d5 2e3e
00000040: d075 cc3e ffa2 16bf 3ebe c53d 7f60 7abf
00000050: fb37 ba3e 7e8f 0e3e b054 e2be 0b13 4abf
00000060: c2c8 c33e dbd2 95be f7b6 e4be 7a6e 0ebf
00000070: 0295 72be dd4b d3c0 398b a6be cb9b 013f
00000080: beea 79be a7c0 b8be d8a6 17bf b3eb 46bf
00000090: 1e40 37be d43f d43c d822 8bbd c6e4 0bc0
000000a0: ca67 3f3f 909c 2f3f faeb 41bd 8cd1 113f
000000b0: f8b7 5a3e b60b 42bf 9a4a b1bf 1dec 53be
000000c0: 88c3 ff3e 8acd 523f 7d81 143e 6abb 183e
000000d0: 43f2 c0bf 2c51 42bf d662 a1bf 944e 9dbf
000000e0: c26f 21be 4952 053f 249e c4bd 4e81 64be
000000f0: 0fac cb3e 9398 1fbe 47f0 ff3e 4c80 fc3d
00000100: 83e7 bebd 2566 06bd 4793 27bf 4c49 81bf
00000110: 0a02 433e e5db 8f3e d06f 19bf a7ea 56bf
00000120: f0a9 8b3d 4925 5cbf 9aa0 5bbf 7c90 60bf
00000130: a1b3 dd3f c3ff 0d3f 296e a83c 4010 4cc0
00000140: d07a 79bf 203d 85bf 3517 1ebf eaaf 19be
00000150: 68d3 bebe 4ac3 6cbf f46b 00bf 58f5 07c0
00000160: 7dd4 7dbf 0a70 3c40 4607 58bf 8725 b8bf
00000170: 6fe5 b9be 8a92 7fbf a142 82bf 4475 36bf
00000180: d156 82bf 81a7 b2be 8abd f5be 676a 313f
00000190: dfc7 9abd a4a5 1cbe da18 c23e b841 093e
000001a0: 35af 0a3f c041 113f d733 d23e c965 083f
000001b0: db3f 1fbe f71a 33c0 9363 4a3f fddc 863f
000001c0: 2ba1 303f b464 ff3e f50d c43e 9934 483c
000001d0: 1a69 68bf d850 80be f2f7 213e c960 8cc0
000001e0: cdcb 613f c3f1 d23e ad2d d73d 3446 bf3e
000001f0: 073f 9a3e 0188 c0bf ce8d aebf e27a a93e
00000200: 2178 053f 2754 0d3f 4412 d03d 27be 4f3f
00000210: fa28 bcbf b5f6 b6be 2086 b6bf 2dbc c9bf
00000220: 41c7 4ebf 4033 563e 9b2d 533f 3ae3 0a3f
00000230: cba3 93be 7188 20bf e636 05bd f58b f0be
00000240: 28df 37bf 0afe d5be b2e7 64bf 3cec 03bf
00000250: 19e3 bd3d 0b88 0cbf e922 17bf 67dd 2dbf
00000260: b473 b6be 1082 07bf ec3c efbe 922a 82bf
00000270: 38a0 cfbe ec04 c73b 9771 bdbd f975 80bf
00000280: 92b8 9d3e afeb 89bc 65ce 73be f990 d6be
00000290: 64d3 7cbe 0552 833c ee64 aebc 557b a03e
000002a0: e69e a63c de62 84c0 b1ba 8cbe 871c 443c
000002b0: 2fae a5be 0338 833f 3550 1d3e 5408 893f
000002c0: d6ab 23c0 da52 733e 03f2 51be 7f22 b140
000002d0: e431 923e 802d 0d3e 1747 e63d f181 c03e
000002e0: 6c92 b13f 8c88 c03e 31b7 983e 69b7 e93f
000002f0: f9ef fcbe 9fbd acbe cabe 8c3f 391c d73e
00000300: bcaa 913e 2a75 963f 5151 9a3d 498a 203f
00000310: 5575 ecbd 7111 e23e 3a1c 30be 7137 0940
00000320: 710a 093e e6fa 923e d99f 09bf fba0 a7be
00000330: f5af c2be f936 42bf 8821 23bf d70f 2dbf
00000340: 6e02 213e 6626 953e 6ea6 adbd d284 19be
00000350: 5def 9a3c 26cb e5bd 2abd 37bf bec7 f2be
00000360: f0d4 0bbb e491 793c 2d5b ffbd 9dff 8d3d
00000370: 3e3f 39be 594f a6be 69e2 3c3e 4594 0cbf
00000380: c11f cdbe c710 4dbf 7b04 a8be 970d 5ebf
00000390: f452 c8be cb55 af3e 2718 68bf 4042 66bf
000003a0: e20c d7bd ebfb 7cbf 13ae cebd e452 18bf
000003b0: ff90 513f 6ebc 483e 9cd2 133e db6c 8ebf
000003c0: 0ae3 b53e fa48 8b3e e6ef ba3d e28b 003f
000003d0: 5c72 c73e ef94 cdbe c559 803e f89e 06bf
000003e0: 9830 c53d 0769 8e3f bdfa b7be ddda 81be
000003f0: d0ab b3be 6c2f adbe a2e1 593e a147 4c3f
-0.19047648 0.11909211 -0.13711055 0.0645825 0.52692425 0.33025837 -0.15331055 0.05912706
-0.012022819 7.784507 0.3076146 0.42513856 0.22720131 0.34689897 -0.12871869 0.17073542
0.39933634 -0.5884246 0.096554264 -0.9780349 0.36370835 0.13921925 -0.44205236 -0.7893531
0.38239104 -0.29262432 -0.4467084 -0.55637324 -0.23689654 -6.6030107 -0.32528093 0.50628346
-0.24405953 -0.36084482 -0.5923896 -0.777034 -0.17895553 0.025909342 -0.06793755 -2.1858382
0.74767745 0.6859827 -0.047344185 0.5696037 0.21359241 -0.7579912 -1.3850892 -0.20695539
0.49953866 0.8234488 0.14502521 0.14915243 -1.5073932 -0.7590511 -1.2608287 -1.2289605
-0.15765288 0.5207868 -0.096004754 -0.22314951 0.39779708 -0.15585546 0.49988005 0.12329158
-0.09321501 -0.032812256 -0.654591 -1.0100493 0.19043747 0.28097454 -0.5993624 -0.839518
0.068195224 -0.8599439 -0.85791934 -0.87720466 1.7320443 0.55468386 0.020560341 -3.1884918
-0.9745302 -1.0409279 -0.6175416 -0.15008512 -0.37270665 -0.9248549 -0.50164723 -2.1243496
-0.99152356 2.9443383 -0.843861 -1.4386452 -0.36307856 -0.99832976 -1.0176584 -0.71272683
-1.0182744 -0.3489342 -0.4799617 0.6930298 -0.07557654 -0.15297562 0.37909585 0.13403976
0.54173595 0.5674095 0.41055176 0.5328031 -0.15551703 -2.7985208 0.7905819 1.053619
0.6899592 0.49881518 0.38291898 0.0122195715 -0.9078537 -0.2506168 0.1581724 -4.3868146
0.882016 0.41200075 0.10506759 0.37358248 0.3012621 -1.5041505 -1.3637025 0.33101565
0.5213643 0.5520653 0.10159734 0.81149524 -1.4700005 -0.35735098 -1.4259682 -1.5760552
-0.8077279 0.20917988 0.82491463 0.5425297 -0.28835902 -0.62708193 -0.03252306 -0.4698178
-0.71824884 -0.4179538 -0.8941604 -0.5153234 0.09271831 -0.54895085 -0.59037644 -0.6791596
-0.3563515 -0.52932835 -0.46726167 -1.0169241 -0.40551925 0.006073585 -0.09250181 -1.0036002
0.30804878 -0.016836016 -0.23809202 -0.4190748 -0.24690014 0.01603032 -0.021288361 0.31344095
0.02033944 -4.1370687 -0.27486184 0.011969692 -0.32359454 1.0251468 0.15362628 1.0705667
-2.557363 0.23762074 -0.20502476 5.535461 0.2855369 0.13786888 0.11244028 0.37599137
1.387281 0.37604177 0.29827264 1.8259097 -0.49401835 -0.3373842 1.0995724 0.4201372
0.28450572 1.1754506 0.07535041 0.62711006 -0.11545817 0.44153932 -0.17198268 2.1440089
0.1338289 0.28707045 -0.53759533 -0.32740006 -0.3802487 -0.7586513 -0.6372304 -0.67602295
0.15723583 0.29130858 -0.084790096 -0.14992073 0.018912965 -0.11220388 -0.71773016 -0.47418016
-0.0021336637 0.015232537 -0.12468562 0.0693352 -0.18090531 -0.32482412 0.18445744 -0.5491374
-0.4006329 -0.80103725 -0.32815918 -0.86739486 -0.39125788 0.34245142 -0.90661854 -0.8994484
-0.10500504 -0.98821896 -0.10091796 -0.5950148 0.8186187 0.1960313 0.1443581 -1.112697
0.3552478 0.27204114 0.09127788 0.50213444 0.38954437 -0.4015269 0.2506849 -0.5258632
0.09628409 1.1125802 -0.35933486 -0.25362292 -0.3509202 -0.33825243 0.21277478 0.797968

weight_hh_l0 f4 [16, 4]
00000000: 5836 433f d2a5 45bf 504f 9c3f 5bd6 0abf
00000010: 0a34 093f 2df0 723e 5e3f ba3d 8b3e aabf
00000020: 7994 4c3e e496 3bbe e8c8 97bd e1b6 f2be
00000030: d00c 1abf 31e3 d7bf c788 9a3f 4e1a 963f
00000040: e125 bf3f 68eb 893e ce32 aa3e 30c5 0540
00000050: cbd9 5040 8481 aabf a396 3dbe 6e5b 18bf
00000060: ff9c 843f a07e 113f 6328 d53d f07a 06be
00000070: 0adc 73be 8218 56bf 5b06 413f 569c 9b3f
00000080: c0f4 0040 d15e cf3f 1582 3ac0 1b0c 41bf
00000090: 38f2 96be a47e 003f 19e8 4fbf e127 29bf
000000a0: d3f6 8bbe 399f 4abd cc3d 093f 83e6 a7be
000000b0: 9588 1dbf 1d89 99bd 9144 7f3f aa21 9d3e
000000c0: 98dd e93f c793 893f c6e4 9e3a a7b9 aebe
000000d0: 4806 e7bd edc9 e8bd 614a 51bf 410d 5ebf
000000e0: 8edf c840 8826 13bf 7e24 6ebf c507 5fbf
000000f0: 09aa ad3e ff57 803e 1d9e 1d3f d494 ebbe
0.76254797 -0.77206147 1.2211704 -0.5423333 0.5359503 0.23724432 0.090941176 -1.3300337
0.19978513 -0.18319279 -0.07411367 -0.4740515 -0.601758 -1.6866208 1.2072991 1.1726778
1.4933435 0.26937413 0.33241886 2.0901604 3.263293 -1.3320775 -0.18514495 -0.5951451
1.0360411 0.5683384 0.10408094 -0.13132834 -0.23814407 -0.83631146 0.7540032 1.2157085
2.0149384 1.6200811 -2.9141896 -0.75409096 -0.29481673 0.5019324 -0.8121353 -0.66076475
-0.2733675 -0.049468253 0.5360992 -0.32793054 -0.6153653 -0.074968554 0.99714 0.30689746
1.827075 1.0748223 0.0012122623 -0.34126016 -0.11280495 -0.11366639 -0.8175412 -0.86738974
6.2772894 -0.5748067 -0.9302443 -0.8712123 0.3391879 0.25067136 0.61569387 -0.46011984

bias_ih_l0 f4 [16]
00000000: 249f 48be c3d0 b03d f5d7 0ebf f203 153f
00000010: 1c66 323f 92a4 d7be 8651 383d ffda 383f
00000020: a0c8 043f 2cea 24bf 53e9 20bd c01f 503f
00000030: 5ee7 423e 9d53 53bf 0f9e a3bf 5f0b e93d
-0.19591957 0.08633568 -0.55798274 0.58209145 0.69687057 -0.42117745 0.04499962 0.7220916
0.5186863 -0.6441982 -0.039285015 0.81298447 0.19033572 -0.8254946 -1.2782611 0.11379122

bias_hh_l0 f4 [16]
00000000: 5ade 0b3e 3aa7 10bf a5ad 9a3e 9768 fa3e
00000010: e23e 1abc 91cc 09bf c70c a2be 86d1 0a3f
00000020: a857 ca3e 0d59 18bf 1ffc 603d c03a 783f
00000030: d65a 053f 4df8 f3be cd6e 32bf 1f2e ef3e
0.13659039 -0.5650517 0.30210605 0.4890792 -0.0094144065 -0.5382777 -0.31650373 0.5422596
0.3952 -0.5951088 0.05492794 0.96964645 0.5209173 -0.47650376 -0.6970032 0.46714875

weight f4 [1, 4]
00000000: 68a8 50bf 45be 463f 77f2 e7be c5f9 dbbe
-0.8150697 0.7763408 -0.45302173 -0.42963997
