pretrained_models/qiwi_model.pt (torch, 5666 bytes, 5 tensors)

weight_ih_l0 f4 [16, 20]
0	0x3eb82a8a	0.35969955
1	0x3ef375ee	0.4755091
2	0x3eb8eda6	0.3611881
3	0xbeb443de	-0.3520803
4	0xbde33595	-0.11094204
5	0xbf40cc67	-0.75311893
6	0xbebf3909	-0.37348202
7	0xbec41c9d	-0.3830308
8	0x3f08c96c	0.53432345
9	0x3e88117c	0.2657584
10	0xbe9517b8	-0.29119658
11	0xbf1047ec	-0.56359744
12	0xbe339d26	-0.17540416
13	0xbf19bce3	-0.60053843
14	0x3e6c32a0	0.23066187
15	0xbee56e85	-0.44810882
16	0xbfd10de7	-1.6332368
17	0x3d987b3f	0.07445382
18	0x3f129138	0.57252836
19	0xc0106dcb	-2.2567012
20	0x3f814821	1.0100137
21	0x3f523476	0.821113
22	0x3e5bc537	0.2146195
23	0x3f8dbbf1	1.107298
24	0xbf90d509	-1.1315013
25	0xbeb2a43b	-0.34890923
26	0xbf260ae8	-0.6486039
27	0xbf2d7de7	-0.67770237
28	0x3efe53b3	0.49673232
29	0x3ff93762	1.9470026
30	0x3df83301	0.12119103
31	0xbf155980	-0.5833969
32	0xbef99c0d	-0.4875187
33	0xbe99dd84	-0.30051816
34	0xbe139d02	-0.14415362
35	0xbea5ec05	-0.3240663
36	0x3f482e85	0.78195983
37	0x3f8a052f	1.0782832
38	0x3ebecc4d	0.37265244
39	0x403d29ca	2.9556756
40	0xbe18308f	-0.14862274
41	0x3c813b3f	0.015775321
42	0x3d40ef5c	0.04710327
43	0xbe6cf9f1	-0.2314222
44	0x3f1eb495	0.61994296
45	0x3e8661c5	0.26246467
46	0x3e9596f2	0.29216725
47	0x3d0e3b26	0.034724377
48	0x3d42b35b	0.047534328
49	0x41290945	10.564763
50	0x3d02ccde	0.031933658
51	0x3d67c98d	0.0565887
52	0x3e1ba20d	0.15198536
53	0xbe5b6fc3	-0.21429352
54	0x3e9402ad	0.2890829
55	0x3e0f3a3c	0.13987058
56	0x3d80fd2e	0.0629829
57	0x3e81c31c	0.2534417
58	0x3e8eed63	0.27915487
59	0x3f75911e	0.95924556
60	0x3f12cd6b	0.5734469
61	0x3e19a2cc	0.15003508
62	0xbe036485	-0.12831314
63	0x3ec1ee0a	0.37876922
64	0x3df0372a	0.11729272
65	0x3d1bb8b7	0.038017955
66	0xbe7839c6	-0.24240789
67	0xbeba4536	-0.3638093
68	0x3e4a4b89	0.19755377
69	0xbf9e50f6	-1.2368457
70	0xbe30da32	-0.17270735
71	0x3f047597	0.5174193
72	0x3f0e6c4a	0.55633986
73	0x3e1ed065	0.15509184
74	0xbdd29c44	-0.102837116
75	0xbe6fbf5b	-0.2341284
76	0x3e2cfb8f	0.16892837
77	0x3d9a3ab6	0.075307295
78	0x3d6350b1	0.055496875
79	0x409b22aa	4.8479815
80	0x3f1b5fb6	0.6069292
81	0x3e56797c	0.2094478
82	0x3eb670d8	0.35632968
83	0x3d43c66f	0.047796663
84	0x3fc1d27e	1.5142362
85	0x3f56f194	0.8396237
86	0x3f2ed0c7	0.6828732
87	0x3f6e1e78	0.9301524
88	0xbd786645	-0.060644407
89	0xbfb8232f	-1.4385737
90	0x3f302da9	0.6881967
91	0x3f43d605	0.7649844
92	0x3f98636f	1.1905345
93	0x3f1afb1c	0.6053941
94	0x3f90a685	1.1300818
95	0x3dc8e603	0.09809496
96	0xbf14439e	-0.57915676
97	0x3e0182e6	0.1264759
98	0x3ecc589c	0.39911354
99	0xbff4d232	-1.9126647
100	0x3de05a2a	0.109546974
101	0xbf11dcc4	-0.56977487
102	0x3de56df8	0.112026155
103	0xbec59b02	-0.38594824
104	0x3eab82c8	0.33498216
105	0xbe6f54e1	-0.23372222
106	0xbece3922	-0.40277964
107	0x3e519f09	0.20470823
108	0xbf11bc4f	-0.5692796
109	0x3fee9d6a	1.8641789
110	0x3ed1ea4f	0.40999076
111	0xbe79185c	-0.24325699
112	0xbd8f210e	-0.069887266
113	0x3e93e746	0.28887385
114	0x3ee26ad8	0.4422214
115	0x3d3a4889	0.04547933
116	0x3e180800	0.14846802
117	0xbe85d86e	-0.26141685
118	0xbebf3d6e	-0.37351555
119	0x40556da3	3.3348167
120	0xbf678fdc	-0.90453887
121	0xbe8e8741	-0.27837566
122	0xbdd701d2	-0.10498394
123	0x3e57b0c0	0.21063519
124	0xbfb0a7ae	-1.3801172
125	0xbec43c8e	-0.3832745
126	0x3e63f1fb	0.22260277
127	0xbd990d3b	-0.07473227
128	0x3e3c0f28	0.18365157
129	0x41556b05	13.338628
130	0x3ee541ab	0.44776663
131	0xbf31662f	-0.69296545
132	0x3d3303eb	0.04370491
133	0xbd9b2403	-0.07575228
134	0x3e472ef9	0.19451512
135	0xbf1e54c6	-0.61848104
136	0x3e728ddf	0.23686932
137	0xbe789ea1	-0.24279262
138	0x3d8631b6	0.0655245
139	0x3f9ff4c7	1.2496575
140	0x3ec79613	0.38981685
141	0x3f7f9b85	0.9984668
142	0x3eb4e5ff	0.35331723
143	0x3f8c34af	1.0953578
144	0x3f575371	0.84111696
145	0x3ec0eeee	0.3768229
146	0xbe5aac87	-0.21354876
147	0x3d7d0e98	0.061781496
148	0x3ea4b566	0.32169646
149	0x40ca8322	6.3285074
150	0x3f427b03	0.7596895
151	0xbe51e6cd	-0.204982
152	0x3e3bf915	0.18356736
153	0x3ed8f955	0.42377725
154	0x3ea3b7b2	0.31976086
155	0x3d0c7ae6	0.034296893
156	0xbdc0823d	-0.09399841
157	0x3f37708c	0.7165611
158	0x3ed52b2e	0.41634506
159	0x3fa1fa06	1.2654426
160	0x3f5c76b5	0.8611863
161	0x3f367668	0.71274424
162	0x3f57ccd7	0.84296936
163	0x3f9f5b27	1.2449692
164	0x3f039bc3	0.5140955
165	0xbf7cde09	-0.987763
166	0xbf71ac8f	-0.9440393
167	0xbeeaf4eb	-0.45889983
168	0x3f1f440d	0.6221321
169	0x4046b93b	3.1050556
170	0xbee61ef3	-0.44945487
171	0xbf23e285	-0.64017516
172	0xbf4dc044	-0.803715
173	0xbe4dcfcb	-0.20098798
174	0xbed0354b	-0.4066566
175	0xbf50863b	-0.8145482
176	0x3f33770b	0.7010352
177	0x3f8e143d	1.1099926
178	0x3f96388e	1.1736009
179	0xc0169bed	-2.353267
180	0xbf1aceab	-0.604716
181	0x3e67b28d	0.22626705
182	0x3dd9708f	0.10617172
183	0x3e24037b	0.16016953
184	0xbd36804c	-0.044555947
185	0xbd519016	-0.0511628
186	0xbe3a0216	-0.18164858
187	0x3dd8f04b	0.10592707
188	0xbe04ba31	-0.12961651
189	0x3ff44865	1.9084593
190	0xbec8e117	-0.3923423
191	0x3e07892d	0.13235922
192	0x3d3c43ab	0.04596297
193	0xbdeb9271	-0.11502541
194	0xbe98bae5	-0.2983009
195	0x3ea70aca	0.3262542
196	0xbe1b8615	-0.15187867
197	0x3e902dc0	0.28159904
198	0xbe039ff7	-0.1285399
199	0x404eb38a	3.2297082
200	0xbeaaa268	-0.3332703
201	0xbf3fd795	-0.7493833
202	0xbdda9988	-0.10673815
203	0xbe6435e6	-0.22286186
204	0x3de447a5	0.111464776
205	0xbf88ae9e	-1.0678289
206	0xbfbca79d	-1.4738652
207	0xbfbc3bcb	-1.4705747
208	0x3eb3af34	0.35094607
209	0x3fed4a34	1.853827
210	0xbed19e73	-0.409412
211	0xbedefd44	-0.435526
212	0xbf317ebb	-0.69334
213	0xbfce0f0a	-1.609834
214	0xbf596ebc	-0.8493459
215	0xbf9950bf	-1.1977767
216	0x3fd6b5dd	1.677425
217	0xbf03abce	-0.5143403
218	0xbec45bcd	-0.38351288
219	0xbf4db86b	-0.80359524
220	0xbdfb8087	-0.12280374
221	0x3e67320b	0.22577684
222	0x3e8519b2	0.25996166
223	0xbe921db0	-0.28538275
224	0x3f9c05ab	1.218923
225	0x3edbed0a	0.42954284
226	0x3e87b2f5	0.2650372
227	0xbe09ecd6	-0.13469252
228	0xbe7f1cdc	-0.24913353
229	0xbf4be360	-0.7964382
230	0x3ee388f5	0.44440427
231	0x3eba19fb	0.36347947
232	0x3eaba1b2	0.335218
233	0xbe2db91e	-0.16965148
234	0xbe073669	-0.1320435
235	0x3f368e03	0.7131044
236	0xbe1f8a2b	-0.1558005
237	0x3ee60f60	0.44933605
238	0x3e9213ee	0.2853083
239	0xc0130724	-2.2973108
240	0xbe5bdafe	-0.21470258
241	0x3bd01124	0.0063496996
242	0xbedd421c	-0.432145
243	0xbf172be1	-0.5905133
244	0x3f4f85ff	0.81063837
245	0xbde0ada9	-0.10970623
246	0xbd766d16	-0.060162626
247	0x3f09c59f	0.5381717
248	0xbdfd72ce	-0.12375413
249	0xc0882160	-4.254074
250	0x3ed74714	0.42046416
251	0x3d3881c6	0.045045637
252	0x3f4f08be	0.80872715
253	0xbeabf55f	-0.3358564
254	0x3e2e6e6f	0.17034315
255	0x3f0f6b7f	0.560234

weight_hh_l0 f4 [16, 4]
0	0x3ec2c9aa	0.38044482
1	0xbfcc2622	-1.5949137
2	0x3e19a3d1	0.15003897
3	0x3effea46	0.49983424
4	0x3ea051f8	0.31312537
5	0xbe4266ed	-0.18984576
6	0x401ed722	2.4818807
7	0xbfd00a4d	-1.6253144
8	0x3f420b55	0.7579854
9	0xbedd4771	-0.43218568
10	0xbe7eaaf8	-0.24869907
11	0x401a94ed	2.4153397
12	0xc0aa0ae6	-5.3138304
13	0x3f0aef7e	0.54271686
14	0x3e2092f4	0.15681058
15	0x3d297b42	0.041377313
16	0xbdfc6a3b	-0.12324949
17	0xbf9d1cd6	-1.2274425
18	0xbd19fcf4	-0.03759475
19	0xbb4c76c4	-0.003119872
20	0xc0a53334	-5.1625004
21	0xbf7b7022	-0.98217976
22	0xbe2cda99	-0.16880263
23	0x3f3ed76e	0.7454747
24	0x3fcb26f6	1.5871265
25	0xbf8ab0c5	-1.0835196
26	0x4023945c	2.5559301
27	0xbdaf8a83	-0.08571341
28	0xc01e715b	-2.4756687
29	0xbe1d787c	-0.15377992
30	0x3f42a729	0.76036316
31	0x3fa02df0	1.2514019
32	0xbf215ed6	-0.63035333
33	0xbd868817	-0.06568926
34	0xbe8289ad	-0.25495663
35	0xbeefdb91	-0.46847203
36	0x401ce2d5	2.4513447
37	0xbf533ebf	-0.8251762
38	0xbeb1900b	-0.3468021
39	0x3e3cf0f2	0.18451288
40	0x3f5e3bf2	0.8681022
41	0x3fe19666	1.7624023
42	0x408a57a7	4.3231997
43	0xc006a9f0	-2.1041222
44	0x3eeeb97d	0.4662589
45	0xbec04c87	-0.37558386
46	0xbd15eda3	-0.03660358
47	0x3f86a206	1.0518196
48	0xbeddb954	-0.43305457
49	0xbfa69f01	-1.3017274
50	0xbf86fce2	-1.0545924
51	0x3f2593ef	0.64678854
52	0x3ff43fac	1.9081931
53	0xbfcc4bc5	-1.5960623
54	0x3eaf11b2	0.34193188
55	0xbfd52ed3	-1.6654915
56	0x3fd2f335	1.6480471
57	0xbf7b0571	-0.9805518
58	0xbfb306e5	-1.3986479
59	0x3e646b38	0.22306526
60	0xbfac822e	-1.3477228
61	0x3e3c9f3f	0.18420123
62	0x3a37c734	0.00070105796
63	0x3c8264f4	0.015917279

bias_ih_l0 f4 [16]
0	0x3e51c6f4	0.20486051
1	0x3fa9170c	1.3210158
2	0xbf1c173a	-0.6097294
3	0xbf4a6dc0	-0.79073715
4	0xbec6aae7	-0.38802263
5	0x3cdf8d8b	0.027289173
6	0xbe92f0f3	-0.28699455
7	0xbf0a00b7	-0.5390734
8	0x3ee507d3	0.44732532
9	0xbec5a9cd	-0.3860611
10	0xbe1c636b	-0.152723
11	0xbf233803	-0.6375734
12	0xbefe1b37	-0.49630138
13	0x3f359d49	0.70943123
14	0xbe7c2448	-0.24623215
15	0xbf9a26f5	-1.2043139

bias_hh_l0 f4 [16]
0	0x3cf115c1	0.029429318
1	0x3f12de45	0.57370406
2	0xbf1e73aa	-0.6189524
3	0xbec7b996	-0.39008778
4	0xbf3a474c	-0.7276504
5	0xbe82d724	-0.25554764
6	0xbf63881b	-0.88879555
7	0xbe682bb6	-0.22672924
8	0x3f1de480	0.6167679
9	0x3ebf2961	0.37336257
10	0xbe12806b	-0.143068
11	0xbf234cf5	-0.637893
12	0x3db79484	0.08963874
13	0x3fa5cbee	1.2952859
14	0xbe8acf0d	-0.27111092
15	0xbf542733	-0.82872313

weight f4 [1, 4]
0	0xbf5834dc	-0.84455657
1	0x3ee96dec	0.45591676
2	0x3ece2377	0.40261433
3	0xbf220dab	-0.63302106
