pretrained_models/sber_model.pt (torch, 17446 bytes, 5 tensors)

weight_ih_l0 f4 [80, 20]
0	0x3f056c86	0.5211872
1	0x3e8ffbb9	0.28121737
2	0x3e17d67b	0.14827912
3	0x3edb6917	0.42853615
4	0x3f870381	1.0547944
5	0x3f138b9e	0.57634914
6	0x3f33ab3c	0.7018316
7	0x3efbfd66	0.49216765
8	0x3ebe841d	0.3721017
9	0xbf493e1c	-0.78610396
10	0x3ee290d5	0.44251123
11	0x3f1523db	0.58257836
12	0x3f77ec99	0.96845394
13	0x3f3e875d	0.744253
14	0x3f651784	0.89489007
15	0x3f297b32	0.66203606
16	0xbe0137da	-0.12618962
17	0x3e9837da	0.2973011
18	0x3eda5213	0.42640743
19	0xbf0bc274	-0.54593587
20	0x3e564d29	0.20927872
21	0x3f007e66	0.5019287
22	0x3dd9be6d	0.10632024
23	0x3dc51963	0.09623983
24	0x3f39684e	0.7242478
25	0x3f63e976	0.8902811
26	0x3f13e47f	0.5777053
27	0x3e9be166	0.30445403
28	0x3ec290fc	0.3800124
29	0xbe6350a0	-0.22198725
30	0x3e76be0a	0.24095932
31	0x3f2b4776	0.66905916
32	0x3f348aa8	0.7052407
33	0x3f49e984	0.7887194
34	0x3f55f8d9	0.83582836
35	0x3f31ce80	0.6945572
36	0x3de8fdb3	0.11376514
37	0x3e385b7b	0.18003647
38	0x3e9784f4	0.29593623
39	0xbf2e7c33	-0.6815826
40	0x3e23913e	0.15973374
41	0x3e46b781	0.19405939
42	0x3ea6f188	0.3260615
43	0x3f35d512	0.71028244
44	0x3f28e4f7	0.6597437
45	0x3edabf1c	0.4272393
46	0x3f0d1447	0.55109066
47	0x3eae7e22	0.34080607
48	0x3edef919	0.4354942
49	0x3fc8e6b9	1.5695411
50	0x3edd6a43	0.43245134
51	0x3eeda5fc	0.464157
52	0x3f19994e	0.5999955
53	0x3f447b74	0.76750875
54	0x3ee709d2	0.4512468
55	0x3f0beb34	0.54655766
56	0xbe7faf98	-0.24969327
57	0x3e1bb50a	0.1520578
58	0x3e38863e	0.1801996
59	0x3f882d57	1.0638837
60	0x3e8e071c	0.277398
61	0x3ef22bb6	0.47298974
62	0x3e976e0e	0.29576153
63	0x3e92bd56	0.28660077
64	0x3f309cc4	0.68989205
65	0x3f0ea145	0.5571483
66	0x3f202333	0.6255371
67	0x3eec567d	0.46159735
68	0x3eaca864	0.33722222
69	0xbf907a58	-1.1287336
70	0x3f73a6fc	0.9517667
71	0x3e9420a3	0.2893115
72	0x3f6e4295	0.93070346
73	0x3f15f330	0.585742
74	0x3f856318	1.0420866
75	0x3f0070cb	0.5017211
76	0x3e231a7a	0.15928069
77	0x3f1dae72	0.6159431
78	0x3eefab8b	0.46810564
79	0xbf45c31b	-0.7725083
80	0x3dc7e7cc	0.097610086
81	0x3e3c9db8	0.1841954
82	0x3eb734a5	0.35782352
83	0x3ec8425a	0.39113122
84	0x3f4d0fa8	0.80102015
85	0x3f8e83ab	1.1133932
86	0x3f23edcb	0.6403472
87	0x3ed6bd56	0.41941327
88	0x3eb998e7	0.36249468
89	0xbe08feff	-0.13378523
90	0x3f499bbd	0.7875326
91	0x3f96adb9	1.1771766
92	0x3f469bf2	0.77581704
93	0x3efad55f	0.48990914
94	0x3f5bb702	0.8582612
95	0x3fc20192	1.5156729
96	0xbed6ee86	-0.41978854
97	0xbd6fe0a9	-0.058563862
98	0x3e196849	0.14981188
99	0xbbecaed6	-0.0072229905
100	0x3ce9863e	0.028506394
101	0x3ed405d8	0.41410708
102	0x3de44999	0.1114685
103	0x3dbbfb3c	0.091787785
104	0x3efd62c0	0.49489403
105	0x3ec22875	0.3792149
106	0x3f04241f	0.51617616
107	0x3f1f74bc	0.622875
108	0x3d63410e	0.055481963
109	0xbf2ddfcd	-0.6791962
110	0x3ed97118	0.42469096
111	0x3fc11c19	1.50867
112	0x3f173b28	0.5907464
113	0x3f85be33	1.0448669
114	0x3f0f0bef	0.55877584
115	0x3f8089c1	1.0042039
116	0xbeb1276b	-0.34600386
117	0x3cdcfaaa	0.026974995
118	0x3dd92bd2	0.10604061
119	0xbf7198a4	-0.94373536
120	0x3ec64c3d	0.3873004
121	0x3e9fd2d4	0.31215537
122	0x3e45c83a	0.19314662
123	0x3e39308a	0.18084922
124	0x3f01f7be	0.5076865
125	0x3f683cad	0.90717584
126	0x3f238de1	0.63888365
127	0x3f86b846	1.0524986
128	0x3e24bda6	0.1608797
129	0xbf80b612	-1.0055563
130	0x3f9f0d86	1.2426002
131	0x3f9c092f	1.2190303
132	0x3f4e390b	0.8055579
133	0x3f3aabd2	0.72918427
134	0x3f5d4ae4	0.864424
135	0x3fa8d515	1.3190027
136	0xbef4d150	-0.47815943
137	0x3e82d02b	0.25549445
138	0x3e9d237c	0.30691135
139	0xbf6ac2cb	-0.9170348
140	0xbe4e512c	-0.20148152
141	0x3e649289	0.22321524
142	0x3e855799	0.26043394
143	0x3efe8a85	0.49715057
144	0x3f62055a	0.88289416
145	0x3f137c87	0.5761189
146	0x3ef7d298	0.48402858
147	0x3e9e5a8a	0.3092845
148	0x3ea879eb	0.32905516
149	0x40425d7f	3.0369565
150	0x3f30852e	0.68953216
151	0x3e8a7769	0.27044228
152	0x3f37768d	0.7166527
153	0x3eebd093	0.46057567
154	0x3f0d005d	0.5507868
155	0x3ef0a44b	0.47000346
156	0x3e9c3d72	0.3051563
157	0x3e1cdbcf	0.15318225
158	0x3eddf024	0.43347275
159	0x4049bd13	3.1521652
160	0xbe24d607	-0.1609727
161	0xbe381390	-0.17976213
162	0x3e2e6f66	0.17034683
163	0x3ea9aa53	0.3313776
164	0x3ea76017	0.32690498
165	0x3e55ec03	0.20890813
166	0x3e895a4e	0.2682671
167	0x3eb4fda9	0.35349777
168	0xbb34aae4	-0.002756768
169	0x406ee93d	3.7329857
170	0x3f1d5841	0.6146279
171	0xbd9b82d5	-0.075933136
172	0x3ebe333a	0.37148458
173	0xbdd456bc	-0.10368106
174	0x3e9891eb	0.29798827
175	0x3e57aceb	0.21062057
176	0x3e5d0329	0.21583237
177	0x3e694bfd	0.22782893
178	0x3d023504	0.03178884
179	0x4040bb49	3.011431
180	0x3f150ebe	0.5822562
181	0x3f41c8cf	0.75697035
182	0x3ed9a988	0.42512155
183	0x3eefb89a	0.46820527
184	0x3f601d01	0.87544256
185	0x3f3e149b	0.7425019
186	0x3f53b3a9	0.82696015
187	0x3f07146a	0.52765524
188	0x3ee9f672	0.45695835
189	0xbfc65806	-1.5495613
190	0x3f8f8931	1.1213742
191	0x3ee0d4f3	0.43912467
192	0x3f2ca6e7	0.6744217
193	0x3f254a2c	0.645663
194	0x3ef35dc5	0.47532478
195	0x3f278c52	0.65448487
196	0x3f429c6e	0.7601994
197	0x3f27746e	0.6541203
198	0x3ea6febd	0.32616225
199	0xbf27fa37	-0.6561617
200	0xbf03e416	-0.51519907
201	0x3dbf96f3	0.09354963
202	0xbeb3ed86	-0.35142154
203	0x3e1cd37c	0.1531505
204	0xbd81b9cf	-0.06334268
205	0xbe96b8b3	-0.2943779
206	0xbef4f26a	-0.47841197
207	0xbcb3d5c6	-0.021952521
208	0xbda88d44	-0.08230069
209	0x40196282	2.3966374
210	0x3e7a1f74	0.24426061
211	0xbe780dbc	-0.24223989
212	0xbe202fc2	-0.15643218
213	0xbe8cad67	-0.27476045
214	0xbee804dd	-0.4531621
215	0xbe6b47e1	-0.22976638
216	0x3ef9a14e	0.48755878
217	0xbd226e21	-0.03965581
218	0xbda84a3e	-0.082172856
219	0x404260dd	3.037162
220	0xbd8abb4e	-0.06774007
221	0xba3af91d	-0.00071324577
222	0xbe0ed7ae	-0.13949463
223	0x3e0137d9	0.1261896
224	0x3f3c1512	0.7346965
225	0x3ed71fe3	0.42016515
226	0x3f2edaaa	0.68302405
227	0x3edfc418	0.43704295
228	0x3e45b4f5	0.19307311
229	0xbf99604e	-1.1982515
230	0x3ebb4f57	0.3658397
231	0x3f1fae38	0.6237521
232	0x3f19e9f5	0.60122615
233	0x3f087b33	0.5331299
234	0x3ee85c58	0.45382953
235	0x3e7064f3	0.23476009
236	0x3f18f95f	0.5975551
237	0x3c3f4234	0.011673499
238	0x3e9c16ae	0.30486053
239	0xbe022158	-0.12708032
240	0x3e2c282b	0.16812198
241	0x3ec08ffb	0.37609848
242	0x3e19085d	0.14944597
243	0x3e9d6b60	0.30745983
244	0xbd0c8983	-0.03431083
245	0xbf2b6f3f	-0.66966623
246	0x3c3406e3	0.01098797
247	0xbeab8fb8	-0.33508086
248	0x3d98fe50	0.07470381
249	0x3eb3aee0	0.35094357
250	0xbf596422	-0.84918416
251	0xbdfd84d7	-0.12378853
252	0xbebe5238	-0.37172103
253	0xbdb2888a	-0.08717449
254	0xbf09ce90	-0.53830814
255	0xbd8a54de	-0.067544684

weight_hh_l0 f4 [80, 20]
0	0x3d8c5bda	0.06853457
1	0xbe07c915	-0.132603
2	0x3dab7c93	0.0837337
3	0x3dd5c46d	0.10437856
4	0xbe811345	-0.25210014
5	0x3d82a3bf	0.06378888
6	0xbe898991	-0.26862767
7	0x3eaacf36	0.33361214
8	0x3ed8ef91	0.42370275
9	0xbdc1b7f2	-0.09458913
10	0x3f08fac1	0.5350762
11	0x3e63cc58	0.2224592
12	0xbec9202f	-0.39282367
13	0xbe96b55d	-0.29435244
14	0xbc1f8110	-0.009735361
15	0xbe135661	-0.1438842
16	0x3f257a4c	0.64639735
17	0x3ef24f9d	0.47326365
18	0xbef217b2	-0.47283703
19	0xbe011d08	-0.12608731
20	0xbe46c5fe	-0.19411466
21	0x3e2447a9	0.16042961
22	0x3eae6418	0.3406074
23	0x3e0cee35	0.13762744
24	0xbc98ee13	-0.01866821
25	0xbe843aa5	-0.25825992
26	0x3d86b9cb	0.06578406
27	0x3eaeb8f4	0.34125483
28	0x3f3df37c	0.7419965
29	0x3cb770d2	0.022392664
30	0x3f3ddb13	0.74162406
31	0x3e326642	0.17421821
32	0xbec592db	-0.38588604
33	0xbdb9dc5d	-0.09075234
34	0xbe5a46a1	-0.21316005
35	0x3b0ed169	0.0021792299
36	0x3f0521fe	0.5200499
37	0x3f093933	0.53602904
38	0xbf125f64	-0.57176805
39	0x3c9d50f7	0.019203646
40	0x3da22be2	0.07918526
41	0xbe5a1ce0	-0.21300077
42	0x3f0f79eb	0.5604541
43	0x3bc31e3c	0.005954532
44	0xbe210d6a	-0.15727773
45	0x3e2ad3a2	0.16682294
46	0x3d9fb14d	0.07797489
47	0x3f1d446e	0.6143254
48	0x3e92da9e	0.28682417
49	0x3d80853b	0.06275412
50	0x3f702ebb	0.93821305
51	0xbe2444c1	-0.16041853
52	0xbf25c862	-0.64758885
53	0xbd021562	-0.031758673
54	0x3e7e8c99	0.24858321
55	0x3db683a2	0.08911826
56	0x400527be	2.0805507
57	0x3f007300	0.50175476
58	0xbeb5a1ac	-0.35474908
59	0x3e1d9e7e	0.15392491
60	0x3e51092b	0.20413654
61	0x3dc75112	0.0973226
62	0x3e7afc4b	0.24510305
63	0xbd864749	-0.06556565
64	0xbd4b3147	-0.04960754
65	0x3ecb96b5	0.39763418
66	0x3e261d67	0.16222154
67	0x3f425782	0.75914776
68	0x3f83b25b	1.0288805
69	0xbbbf7044	-0.0058422405
70	0x3fdf6062	1.7451289
71	0x3e6b6032	0.22985914
72	0xbf9565ed	-1.167173
73	0x3e2f8369	0.17139973
74	0xbd83190d	-0.064012624
75	0xbdf9b2f5	-0.121923365
76	0xbcbbd601	-0.022929193
77	0x3f82bc08	1.0213633
78	0xbe0c9ebd	-0.13732429
79	0xbe05b9cd	-0.13059159
80	0xbebd77a5	-0.37005344
81	0x3e213722	0.15743688
82	0x3e6149bf	0.22000788
83	0xbbdaaf82	-0.006673754
84	0xbcaf4976	-0.021397334
85	0x3ee7090c	0.4512409
86	0x3f1f81be	0.62307346
87	0x3eeb577e	0.4596519
88	0x3eb539d7	0.3539569
89	0xbdac7dc5	-0.08422426
90	0x3ff91460	1.9459343
91	0xbe662abe	-0.22477242
92	0xbfa70b33	-1.3050293
93	0xbef0e12e	-0.47046798
94	0xbd2aa4ec	-0.041661188
95	0x3e37f413	0.179642
96	0xbf31036e	-0.6914586
97	0x3d238c7e	0.039928906
98	0xbf5d5548	-0.86458254
99	0x3e1555ea	0.14583555
100	0x3de76bac	0.11299834
101	0xbe6779a3	-0.22604994
102	0x3eae086d	0.33990803
103	0xbcda84d0	-0.026674658
104	0x3df6484b	0.120255075
105	0x3e82db03	0.25557718
106	0xbe5348e6	-0.20633277
107	0x3f3e7d0b	0.7440955
108	0x3f741c0c	0.95355296
109	0xbe868d38	-0.26279616
110	0x3fce963c	1.6139598
111	0xbe5c4191	-0.21509387
112	0xbfb66cd2	-1.4251959
113	0xbdfb7ed1	-0.12280048
114	0x3e287a28	0.16452849
115	0x3e428080	0.18994331
116	0x3db74809	0.089492865
117	0xbce7983a	-0.02827083
118	0xbf7196c7	-0.9437069
119	0xbe143584	-0.1447354
120	0xbe0b8349	-0.136243
121	0xbde6112c	-0.11233744
122	0x3f03c343	0.5146982
123	0xbeb68ce0	-0.35654354
124	0xbdd1e629	-0.10248978
125	0x3f55bee8	0.83494425
126	0x3f05c6f9	0.52256733
127	0x3e915dfd	0.2839202
128	0x3f42a908	0.7603917
129	0xbe371a55	-0.17881139
130	0x3f90b4b6	1.1305149
131	0xbd1322db	-0.035921913
132	0xbf192232	-0.598178
133	0xbedf733d	-0.43642607
134	0xbd806f5b	-0.06271239
135	0x3e4b3b14	0.19846755
136	0xbc2e1b39	-0.010626608
137	0x3dc9cc21	0.098533876
138	0xbf67ed94	-0.9059689
139	0x3e6f39ca	0.23361889
140	0xbde96401	-0.11396027
141	0x3e5d60c6	0.21618947
142	0x3d4e82a3	0.050417554
143	0x3eafca18	0.34333873
144	0xbd5f7f7b	-0.054564934
145	0x3e3917c0	0.18075466
146	0x3ec07849	0.3759177
147	0x3fc8db01	1.5691835
148	0xbf8ed309	-1.1158153
149	0xbdca0779	-0.098647065
150	0x3f7a62c0	0.9780693
151	0x3d32d517	0.04366025
152	0xbec603ba	-0.38674718
153	0xbeef3266	-0.46718138
154	0x3e4c4c96	0.1995109
155	0xbf8d4f77	-1.1039876
156	0x4044f039	3.077162
157	0x3ed0904e	0.40735096
158	0xbf9d1a77	-1.2273701
159	0x3c1c7b17	0.009550831
160	0xbe222e4c	-0.15837973
161	0xbe966164	-0.29371178
162	0x3ae14301	0.0017186106
163	0x3d0d464c	0.03449087
164	0x3d5be64e	0.053686433
165	0xbe3b86db	-0.18313162
166	0x3f1b0a77	0.60562843
167	0x3e8fdaf1	0.28096727
168	0x3f2414ed	0.6409443
169	0xbcc4b2bd	-0.02401101
170	0x3f488db7	0.7834124
171	0x3ec2fe0d	0.3808445
172	0xbec7ff19	-0.39061812
173	0xbe585254	-0.21125156
174	0x3ef3ef5f	0.47643563
175	0xbc08710f	-0.0083277365
176	0x3f5aca02	0.8546449
177	0xbeda7a61	-0.42671493
178	0x3f76b04c	0.9636276
179	0x3e8aa454	0.27078497
180	0xbb6bfb7f	-0.0036008058
181	0xbdca8841	-0.098892696
182	0x3f315442	0.6926919
183	0x3e885590	0.2662778
184	0x3de9576b	0.11393627
185	0x3d3f3143	0.04667784
186	0x3ceb1d2c	0.028700434
187	0x3f43207c	0.7622144
188	0x3f80478c	1.0021834
189	0xbd860507	-0.06543928
190	0x3f6e3b44	0.9305918
191	0xbddbc767	-0.10731392
192	0xbf648fbd	-0.8928183
193	0x3dd2f719	0.103010364
194	0xbcd3726f	-0.025811402
195	0xbde857a7	-0.11344843
196	0x3e1090fc	0.14117807
197	0xbe1dc3f7	-0.15406786
198	0xbf03e9d2	-0.51528656
199	0x3e8cc054	0.27490485
200	0xbdc442be	-0.095830426
201	0x3e3579bd	0.1772222
202	0x3cf7dbae	0.030256119
203	0xbdd92672	-0.10603036
204	0xbf37dfb3	-0.7182571
205	0xbee7dea5	-0.45287052
206	0xbe281a36	-0.16416249
207	0xbc398fa6	-0.011325752
208	0xbe45f65c	-0.1933226
209	0xbece40aa	-0.4028371
210	0x3d348e0b	0.044080775
211	0x3d6b5970	0.05745834
212	0x3e350eee	0.17681476
213	0xbe274425	-0.16334589
214	0x3e178033	0.14794998
215	0x3e8131a6	0.2523319
216	0xbf930014	-1.1484399
217	0xbea805b7	-0.3281686
218	0x3f9f28cf	1.2434329
219	0x3dc94df7	0.09829324
220	0x3e88764f	0.26652762
221	0xbe3346aa	-0.17507425
222	0x3e58f8ca	0.21188655
223	0x3da46e32	0.080288306
224	0xbd3f6d6c	-0.046735212
225	0xbdff3fba	-0.12463327
226	0xbd9eb671	-0.07749642
227	0x3ea23ac0	0.31685448
228	0x3eecedf7	0.46275303
229	0xbe24307b	-0.16034119
230	0x3f4a5fef	0.79052633
231	0x3e24ac6e	0.16081402
232	0xbf2767b8	-0.6539264
233	0xbd0049d1	-0.031320397
234	0xbe1b2566	-0.15150985
235	0xbde92687	-0.11384302
236	0x3f300b20	0.68766975
237	0xbdfeec58	-0.12447423
238	0xbef95ab1	-0.48702005
239	0x3e441063	0.19146876
240	0x3d88dbc1	0.0668254
241	0xbed4ca37	-0.41560528
242	0x3ea8a75a	0.3294018
243	0xbc8f6541	-0.017504336
244	0xbeecc62e	-0.4624495
245	0xbe5d5c48	-0.21617234
246	0x3f0ecfab	0.55785626
247	0x3fbca129	1.4736682
248	0x3ec5695c	0.38556945
249	0x3e263972	0.16232851
250	0xbd8e1d82	-0.06939222
251	0x3ef965f4	0.48710597
252	0x3d986bbb	0.07442423
253	0x3e25743d	0.16157623
254	0xbdfa417b	-0.12219521
255	0xbe0b5c47	-0.1360942

bias_ih_l0 f4 [80]
0	0xbf871a31	-1.0554868
1	0xbf08dcdf	-0.5346202
2	0xbf8bc51a	-1.0919526
3	0xbf667abc	-0.9003103
4	0xbf8d63de	-1.1046102
5	0xbf24292e	-0.64125335
6	0xbf0da4d3	-0.55329627
7	0xbf5f37f2	-0.8719474
8	0xbf1640fa	-0.58692896
9	0xbf51da32	-0.81973565
10	0x3ea9e1a0	0.3317995
11	0xbf4efde6	-0.8085617
12	0xbec0d17b	-0.3765982
13	0xbf8acca4	-1.0843701
14	0xbf9576d8	-1.1676893
15	0xbdc88220	-0.097904444
16	0x3f33e653	0.7027332
17	0xbf07ffbb	-0.5312459
18	0xbee9ed18	-0.456887
19	0xbf7486a8	-0.9551797
20	0xbe5a2248	-0.2130214
21	0xbf039df8	-0.51412916
22	0xbf308a3e	-0.6896094
23	0x3e3f7892	0.18698338
24	0xbf467e3c	-0.7753637
25	0xbeb54d1b	-0.3541039
26	0xbee850a9	-0.4537404
27	0xbf250f42	-0.64476407
28	0xbf7ba602	-0.9830018
29	0xbec7b858	-0.3900783
30	0xbee2a892	-0.44269234
31	0xbef7744c	-0.48330915
32	0xbf6393ad	-0.8889721
33	0xbf382b34	-0.7194092
34	0xbf20d916	-0.62831247
35	0xbf1c2de0	-0.610075
36	0xbf1cf718	-0.61314535
37	0xbf551348	-0.83232546
38	0x3efc0c1b	0.49227986
39	0xbf60bff7	-0.87792915
40	0xbe673efa	-0.22582617
41	0x3db72068	0.08941728
42	0x3e4f9c66	0.20274505
43	0x3e8e8e4d	0.27842942
44	0x3e5497c7	0.20761023
45	0xbe43efae	-0.191344
46	0x3ea5d6b4	0.32390368
47	0x3f82ace7	1.0209016
48	0xbeaeb8f4	-0.34125483
49	0x3eb49d5e	0.35276312
50	0xbf6526b0	-0.8951216
51	0x3de4f0f5	0.111787714
52	0x3e8a6969	0.27033547
53	0x3e51a625	0.20473535
54	0x3c52e71b	0.012872483
55	0x3e7f3987	0.24924289
56	0xbf63af1c	-0.8893907
57	0xbdc673e1	-0.09690071
58	0xbe40c6d2	-0.18825844
59	0xbdde181f	-0.108444445
60	0xbf3f5ff0	-0.74755764
61	0xbf16a52c	-0.5884578
62	0xbf40a010	-0.75244236
63	0xbed5bc56	-0.4174525
64	0xbf879140	-1.0591202
65	0xbf2af57c	-0.6678083
66	0xbf531f87	-0.8246998
67	0xbf933dbc	-1.1503215
68	0xbf95aa63	-1.1692623
69	0xbee19384	-0.44057858
70	0xbdcc7cd7	-0.09984749
71	0xbf274310	-0.65336704
72	0xbf29a4bf	-0.6626701
73	0xbf7ce20c	-0.9878242
74	0xbf96392a	-1.1736195
75	0x3e6eecb6	0.23332486
76	0x3e42a41b	0.19007914
77	0xbf294584	-0.661217
78	0xbf44a15b	-0.7680871
79	0xbf7e633f	-0.9937019

bias_hh_l0 f4 [80]
0	0xbf6d2d0b	-0.92646855
1	0xbf594501	-0.84870917
2	0xbf5033ad	-0.8132885
3	0xbf55cbb6	-0.83513963
4	0xbf8346fc	-1.0256038
5	0xbf35cfe2	-0.7102033
6	0xbee73b0b	-0.45162234
7	0xbf4fab82	-0.81121075
8	0xbef5bbfc	-0.47994983
9	0xbf58d965	-0.8470672
10	0x3e0435eb	0.12911193
11	0xbf4ba940	-0.7955513
12	0xbf04ffe8	-0.5195298
13	0xbf773db3	-0.9657852
14	0xbf84311e	-1.0327489
15	0xbea88dbf	-0.32920644
16	0x3f218514	0.63093686
17	0xbf1de5d7	-0.6167883
18	0xbe9d2f61	-0.3070021
19	0xbf836afa	-1.0267022
20	0xbe8361a7	-0.2566044
21	0xbf0fc73c	-0.5616338
22	0xbf243ab1	-0.64152056
23	0xbc4d7bb6	-0.012541702
24	0xbf4fe7c0	-0.81213
25	0xbed9e809	-0.4255984
26	0xbe2f52b9	-0.171214
27	0xbf4b4c11	-0.79412943
28	0xbf2ad9e6	-0.66738737
29	0xbead40c6	-0.3383848
30	0xbf0e9be1	-0.557066
31	0xbec0828c	-0.375996
32	0xbf674882	-0.90345013
33	0xbf253896	-0.6453947
34	0xbf0bb70c	-0.5457618
35	0xbf0091b5	-0.5022233
36	0xbf085403	-0.5325319
37	0xbf9e6bb7	-1.2376622
38	0x3f20193b	0.625385
39	0xbf6e382d	-0.9305447
40	0xbd167348	-0.036731035
41	0x3ec2c9e0	0.38044643
42	0x3df642d3	0.120244645
43	0x3e78ea08	0.24308026
44	0x3ebd3416	0.369538
45	0xbdd214c3	-0.10257866
46	0x3df7d116	0.12100427
47	0x3f6ff062	0.9372617
48	0xbd90fa84	-0.07079032
49	0x3caef899	0.021358775
50	0xbf410bd4	-0.75408673
51	0x3ea667d9	0.32501104
52	0x3ec131da	0.37733346
53	0x3e8993cc	0.26870573
54	0x3b883a9b	0.004157377
55	0x3e387045	0.18011577
56	0xbf22c5d8	-0.63583136
57	0x3e3c6447	0.18397628
58	0xbd1a7c29	-0.037716065
59	0x3e769f34	0.24084169
60	0xbf6ca6ba	-0.92441905
61	0xbf6d174d	-0.9261368
62	0xbf7b1e77	-0.9809336
63	0xbf171fb1	-0.5903273
64	0xbf363191	-0.7116938
65	0xbf4828ee	-0.78187454
66	0xbee690ca	-0.4503234
67	0xbf67ccd5	-0.90546924
68	0xbf7807db	-0.96886986
69	0xbf277c73	-0.6542427
70	0xbdf44cd9	-0.1192872
71	0xbf7117c2	-0.94176877
72	0xbf349c17	-0.70550674
73	0xbf814213	-1.0098289
74	0xbf9449a9	-1.1584979
75	0x3ebf4afc	0.37361896
76	0x3eafa033	0.3430191
77	0xbf0bd610	-0.5462351
78	0xbf1ec56f	-0.6202001
79	0xbf8be140	-1.0928116

weight f4 [1, 20]
0	0x3e4e3e54	0.20140964
1	0x3cac18cc	0.021007918
2	0x3dc2f87b	0.0952005
3	0x3d0b4044	0.033996835
4	0x3c12d866	0.008962726
5	0xbdab83d6	-0.08374755
6	0xbd06b7c5	-0.0328901
7	0xbe52b93b	-0.20578472
8	0xbe26bb24	-0.16282326
9	0x3c23e6c5	0.01000375
10	0xbf01f751	-0.50768
11	0x3dd4f88d	0.1039897
12	0x3ed78992	0.42097145
13	0x3e61b432	0.22041395
14	0x3d02f3ef	0.031970914
15	0x3e8f1e58	0.27952838
16	0x3f81ef5c	1.0151172
17	0x3e8cb7b6	0.2748391
18	0x3e846db0	0.25864935
19	0xbe5941ec	-0.21216553
