pretrained_models/sber_model.pt (torch, 16937 bytes, 5 tensors)

weight_ih_l0 f4 [80, 20]
000000 30 0c e4 3e a9 49 1a 3f 98 a6 51 3e 08 92 11 3f
       0.44540548 0.60268646 0.20473707 0.5686345
000010 fd 3d 98 3f 5c 93 34 3f 74 7c 51 3f 9e e6 0f 3f
       1.1893917 0.7053735 0.81830525 0.5621127
000020 2b b1 47 3e 45 f9 69 3f dd 16 1f 3f 23 e5 20 3f
       0.19501178 0.9139598 0.6214426 0.62849635
000030 eb c9 92 3f 89 bf 2b 3f c7 66 66 3f 9b e7 3c 3f
       1.146787 0.67089134 0.90000576 0.737909
000040 8d 27 5c 3e 6d 26 62 3e 49 d4 da 3e a5 b7 25 3f
       0.21499462 0.22084971 0.42740086 0.64733344
000050 b8 47 25 3f 86 c4 09 3f 5e 97 c9 3e 52 e7 8e 3e
       0.6456256 0.53815496 0.39373296 0.27910858
000060 b3 47 6e 3f 7f 52 0f 3f 3e ef 46 3f 90 e0 8b 3d
       0.93078154 0.55985254 0.77708805 0.06829941
000070 a2 af f3 3e 84 c0 38 bf e6 ff af 3e 12 1d 57 3f
       0.47594935 -0.72168756 0.34374923 0.8402873
000080 f1 e6 89 3f 5e 5d 4f 3f 48 d2 23 3f d3 9d 41 3f
       1.0773603 0.8100184 0.6399274 0.75631446
000090 b6 48 0a bf 1f fe 83 3e f8 3b 17 3f 96 f5 31 bf
       -0.540172 0.25779817 0.5907588 -0.6951536
0000a0 25 bc be 3d a2 38 8c bd 73 78 a3 3d 96 10 61 3e
       0.093132295 -0.06846739 0.07981958 0.21978983
0000b0 cd e2 57 3f 9d 14 d9 3e f4 15 34 3f 21 4e 79 3e
       0.84330446 0.4239854 0.70346 0.2434621
0000c0 01 fb 1e be 06 d4 c4 bf 40 39 e1 bd f8 75 c5 3f
       -0.15525438 -1.5377204 -0.10997248 1.5426626
0000d0 88 1a 82 3f bf bf 32 3f 98 2a 04 3f d4 77 6b 3f
       1.0164347 0.6982383 0.5162749 0.9197972
0000e0 56 05 d8 bf 5f be 06 ba ad a2 a7 bc 4e 82 b6 bf
       -1.6876628 -0.0005140062 -0.020463312 -1.4258516
0000f0 ad 8a 92 3e da 16 eb 3e ba 9a a1 3e 91 e2 43 3e
       0.28621426 0.45915872 0.3156336 0.19129397
000100 4d 2a 58 3f 2d b8 ac 3f 31 dc fa 3f cb a6 da 3f
       0.84439546 1.3493706 1.9598447 1.7082151
000110 b5 c4 05 3d 0f b7 f6 bf 37 7b 34 3f 20 57 d2 3f
       0.032658298 -1.9274615 0.7050051 1.6432838
000120 bb 44 a0 3f ed 73 0f 40 60 4d 86 3f 6b 0d 00 40
       1.2520975 2.2414505 1.0492363 2.000819
000130 a6 ef 10 bf ca 02 72 3e 57 5e d4 3e 1e cf 90 3e
       -0.56615674 0.23633876 0.41478226 0.28283018
000140 fe dc 8e 3e 09 c3 85 3e e9 8c 9d 3e c4 f0 2e 3e
       0.2790298 0.26125363 0.30771568 0.17084032
000150 9f 6f 77 3f 9f f6 10 3f ad 12 62 3f 76 45 21 3f
       0.96654695 0.56626314 0.88309747 0.62996614
000160 af 3f 96 3e 29 bb cb 3d a7 aa 70 3f 94 05 7a 3e
       0.29345462 0.09947807 0.94010395 0.2441619
000170 e1 58 94 3f 78 6f fc 3e 1d 29 70 3f 76 b5 49 3d
       1.1589624 0.49303794 0.93812734 0.04924532
000180 27 4a 07 3f b1 a3 38 bc 7a ae 71 3e dd 66 5e bf
       0.5284752 -0.011269496 0.23601714 -0.86875707
000190 69 4c 95 be 83 3b a3 3d dc 89 a4 bd f9 74 0c 3d
       -0.2915986 0.07970335 -0.08034107 0.03429124
0001a0 d0 61 53 3f 67 21 61 3f be 12 06 3f 1d 51 49 3f
       0.82571125 0.8794159 0.5237235 0.78639394
0001b0 8e d0 20 3e 65 f4 f5 3f 10 ac 53 3f 63 57 c1 3e
       0.15704557 1.9215208 0.8268442 0.37761983
0001c0 23 d8 f6 3e 37 6b bf 3e d5 7c 69 3f 58 06 31 3f
       0.48211774 0.37386486 0.91206104 0.69150305
0001d0 58 7e 50 bd 25 59 3b be ae 8f 6a 3e 3d 50 b2 3f
       -0.05090174 -0.18295725 0.22906372 1.3930737
0001e0 22 59 15 3e cc 16 a9 3d f3 a1 4d 3e 7b dd 43 3e
       0.14584783 0.08256301 0.2008131 0.19127457
0001f0 f2 44 80 3f 70 3f 8e 3f 8e c0 7d 3f 02 67 b9 3f
       1.002104 1.111311 0.9912194 1.448456
000200 59 c3 df 3d fc a6 ed 3e 44 05 e7 3f 52 c9 6f 3f
       0.109259315 0.4641646 1.8048482 0.93666565
000210 f7 bb 6c 3f 20 23 39 3f 81 e1 b1 3f c0 60 84 3f
       0.9247431 0.7231922 1.3896943 1.0342026
000220 3f 9d d5 be 9a a6 3d 3c 2b 51 b4 3d 2d 1f a1 3f
       -0.41721532 0.011575365 0.08804544 1.2587639
000230 45 09 a9 3e d6 80 86 3e d5 08 9c 3e 39 7e 0b 3e
       0.33014885 0.2627017 0.30475488 0.13622369
000240 c6 19 54 3e 9a a2 03 bf cf cf be 3d 56 84 c4 be
       0.20712957 -0.51419985 0.0931698 -0.38382214
000250 cf 18 ff 3e 73 05 22 3f fe 7a ee be 98 90 98 be
       0.49823615 0.63289565 -0.4657821 -0.29797816
000260 34 30 80 be 64 43 90 3d 71 a4 eb be 71 9a 39 bf
       -0.25036776 0.07044104 -0.46023896 -0.72501284
000270 20 c2 a2 3e 59 75 b3 3e 3c bc 07 3f 83 db e8 3f
       0.3178873 0.35050467 0.530216 1.819199
000280 cb 02 b5 3e e5 78 70 3e 45 82 2a 3e 85 33 a7 3c
       0.35353693 0.23483618 0.16651256 0.020410309
000290 3a 11 98 3f 05 1e 26 3f 68 eb 6d 3f fe 91 3a 3f
       1.1880257 0.64889556 0.92937326 0.72879016
0002a0 64 99 b6 3e 50 93 28 bf ef 4a 4e 3f a6 53 36 3f
       0.35663903 -0.6584978 0.8058309 0.7122139
0002b0 44 c9 8b 3f 3b 35 21 3f 64 fe 35 3f 7b 7c 2e 3f
       1.0920796 0.6297185 0.71091294 0.6815869
0002c0 ab 82 04 3f 20 c2 13 3e 5b 66 c7 3e 1c 6b b9 3d
       0.51761883 0.14429522 0.3894528 0.090536326
0002d0 55 f3 2a 3f e3 08 e8 3e b1 28 bd 3e c9 4e 33 3f
       0.66777545 0.4531928 0.36945108 0.7004209
0002e0 e6 0e 88 3e f5 41 ff bf 51 ee 24 bf cd e1 99 bf
       0.26573867 -1.9942003 -0.6442614 -1.2022034
0002f0 b8 17 c9 3e 7f f6 eb bd 85 3b 88 bf e6 39 cb be
       0.39275908 -0.11521625 -1.0643164 -0.3969261
000300 b9 f3 e8 be f1 a9 41 be 0c 47 05 c0 18 55 96 bf
       -0.45498446 -0.18912484 -2.0824614 -1.1744719
000310 31 5e ca bf 12 d9 de 3e b4 bd 18 3f 0c e9 f5 3e
       -1.5809995 0.43524987 0.59664464 0.48029363
000320 ba 2d 48 3d f6 8b d3 bd 48 14 32 3e f3 f7 dd 3e
       0.048871733 -0.1032943 0.17390549 0.43353233
000330 85 d0 a2 3b 3c e4 03 3f a5 4e 04 3f 8f fc d4 3d
       0.004968705 0.51520133 0.516825 0.10399734
000340 05 46 fb 3d 3e f3 b6 3f 71 b1 b3 3e f6 dd 5a bd
       0.122692145 1.4292982 0.35096315 -0.053434335
000350 33 48 3e 3f 30 2d e8 3e cc b6 20 3f db 90 d1 3e
       0.7432892 0.45346975 0.62778926 0.40930828
000360 ac 0e 58 3f 26 ac ca 3e 07 28 91 3e d9 1b 17 40
       0.8439739 0.39584464 0.2835085 2.3610747
000370 0f bb 4b 3e 8b e6 64 3e de 26 c0 3e f9 92 22 3f
       0.19895576 0.2235357 0.37529653 0.6350551
000380 c9 59 7d 3f 1d c1 4e 3f f6 c4 78 3f 79 8a 61 3e
       0.98965126 0.8076342 0.9717554 0.2202548
000390 b0 b6 0b 3f 60 bf 5c 3e b3 ca be 3e e6 ee 07 3f
       0.54575634 0.21557379 0.37264022 0.53098905
0003a0 34 af 2e 3f c1 06 6f 3f 67 06 2a 3f f6 e7 11 3f
       0.6823609 0.9336968 0.6641602 0.5699457
0003b0 d1 d9 6e 3e 5d 8d 1f 3f 2f 52 10 3f 13 07 b7 3d
       0.23325278 0.6232508 0.563754 0.08936896
0003c0 44 05 92 bd 94 c9 83 bd 05 6e 8f be 76 b3 bd 3e
       -0.071299106 -0.06434932 -0.28013626 0.3705098
0003d0 c0 8b 51 3f 68 2a 82 3e 34 ce d2 3e 1e ec 81 3e
       0.81853867 0.25422978 0.41172945 0.25375456
0003e0 eb af 49 be df b6 9c 40 76 9f 1f 3f 92 15 89 3e
       -0.19696014 4.897323 0.62352693 0.2677427
0003f0 37 c3 d7 3e f5 69 55 bd 33 9f dd 3e 78 ef b9 3e
       0.42141125 -0.052103 0.43285522 0.36315513

weight_hh_l0 f4 [80, 20]
000000 2e 21 9e bd 17 a5 8f bd 2e 70 d4 3c 6a e4 1e 3c
       -0.07721172 -0.0701391 0.025932398 0.009698013
000010 e3 71 01 be 6f 46 f6 3d c2 7e cc be 0a d8 42 3f
       -0.126411 0.12025153 -0.3994046 0.761109
000020 bf c1 dd 3d 9b 94 99 bc bf 46 8d 3e a0 b5 64 be
       0.1082797 -0.018747618 0.27593037 -0.2233491
000030 6e 10 13 3e a5 7e 7b 3e e5 44 3c bd 6d a5 48 be
       0.14361736 0.2456003 -0.04596414 -0.19594355
000040 88 b4 f9 3d e9 15 8d bd 47 c6 ec 3e bd 7e 16 3e
       0.12192637 -0.06888945 0.46245024 0.14696784
000050 fc 80 19 be 24 cb af be eb 36 80 3e f5 c9 99 bc
       -0.1499061 -0.34334671 0.250419 -0.018773058
000060 c9 61 f9 3d 6d 30 52 3f b5 1e 16 be b3 94 76 3f
       0.12176854 0.8210514 -0.14660151 0.96320647
000070 e9 44 81 3f 83 6b 5d be 71 b9 1c 3f 06 70 11 bd
       1.0099155 -0.21623044 0.6122046 -0.035507225
000080 b2 d6 1f 3f 63 3a 81 3f 3c 44 04 3f 22 2e df bd
       0.62436974 1.0095943 0.5166662 -0.10897471
000090 da 79 0d 3f 0b 06 a5 3d 0b 28 c8 3e 0f 1a a0 bd
       0.55264056 0.08057793 0.3909305 -0.0781747
0000a0 99 5b 55 be 1c 6a b0 be d1 dc 93 3e 24 e9 aa 3e
       -0.20835723 -0.34455955 0.28879407 0.33380997
0000b0 a0 21 6e 3e 1d b3 1e 3f 96 4a 46 3d d2 88 df 3f
       0.23255014 0.61992055 0.048410974 1.7463629
0000c0 9a 9e 89 3e 96 5f f3 be da 14 49 bf b2 ea c0 3c
       0.26878816 -0.47533864 -0.7854744 0.023549411
0000d0 00 90 d8 3f 38 69 78 3f 21 0e 8a 3e e1 49 b6 be
       1.6918945 0.9703555 0.26963905 -0.3560324
0000e0 b8 86 3d 3f 93 b5 4e 3d 6c ee 7c 3f d9 79 94 bd
       0.7403369 0.05046613 0.988013 -0.07249803
0000f0 4c 02 8a be 16 46 3a be cc d0 fb 3d 54 8b ca be
       -0.26954877 -0.18190798 0.12295684 -0.39559424
000100 fe 14 a5 3d a5 0b 2b 3f c0 0e 80 3d 94 99 61 bb
       0.080606446 0.66814643 0.06252813 -0.0034423815
000110 0e 37 b4 3e d6 df 33 be 19 93 af 3e 3e 20 8e 3e
       0.35198253 -0.17565855 0.34291914 0.27758974
000120 a5 a3 c6 3f 93 40 13 3f 4c 4d fa 3d 73 2b 6c be
       1.551869 0.5752041 0.122217745 -0.2306345
000130 64 d7 26 3f 93 5d 43 be 1b 73 18 be 12 8c 84 be
       0.6517241 -0.19078664 -0.14887659 -0.25888115
000140 cc c0 f6 3d 67 fd 91 bd a2 b0 1c be 98 66 47 bd
       0.12048492 -0.07128411 -0.15301755 -0.048681825
000150 81 b2 8b be 69 4f 93 3e 08 df a4 bd 8a 83 67 3f
       -0.27284625 0.28771523 -0.08050352 0.9043509
000160 01 c5 5d bc 6f b9 bd be c2 c3 bb 3e 5d 4a 62 be
       -0.013535739 -0.37055537 0.3667279 -0.2209868
000170 8f 5c 66 3f a1 4f cf 3e f7 09 f4 bd 14 bd 10 be
       0.89984983 0.4049044 -0.11915963 -0.14134628
000180 d7 9a ac 3e 80 ac 3e 3d 1a e3 2d be 7c bd 59 3e
       0.33711883 0.046551228 -0.16981164 0.21263689
000190 ec 78 be bb 82 e4 a7 3e 34 fa 8a 3d d2 3f 09 3e
       -0.005812755 0.32791525 0.06786004 0.13403252
0001a0 53 b0 8f bc 8b 75 2c 3f dc 64 06 be fd 39 3e 3f
       -0.017540133 0.67366856 -0.13124412 0.74307233
0001b0 1b 68 a2 3e 95 e6 72 bf 18 a5 02 3d 44 07 e2 be
       0.3172005 -0.9488309 0.031895727 -0.44146168
0001c0 9c 43 58 3e 61 7e 9a be 08 a3 3b 3e 29 fe b8 3c
       0.21119541 -0.30174544 0.1832391 0.02258213
0001d0 1b 2c 23 3e 65 e2 9b 3e 5f 48 83 3f 7d bd f7 be
       0.15934794 0.30446163 1.0256461 -0.48386756
0001e0 51 32 4b 3c fe f1 23 be ee b3 32 be b2 4a 86 3e
       0.012402133 -0.16010281 -0.1745145 0.26228863
0001f0 73 44 5b 3b 9f 41 2c 3f a8 23 df 3e 0c 47 20 3f
       0.0033457547 0.6728763 0.4358189 0.6260841
000200 f4 8b 10 3d ad 15 e7 be 3a f7 67 be 5a b8 7a 3e
       0.03528972 -0.45133725 -0.22652903 0.24484387
000210 3f 3e b8 3e 90 2d c2 3e f0 c5 94 3e 2e e6 49 bf
       0.3598499 0.37925386 0.29057264 -0.7886685
000220 ef 34 04 3f 71 73 31 3e 3a 82 29 3f 65 55 ad bc
       0.5164327 0.17329194 0.66214335 -0.021158883
000230 14 d8 48 3b 86 b5 85 3d 5c b2 3f bc 38 a4 e4 3e
       0.003064637 0.065287635 -0.011700239 0.4465654
000240 e6 4d 30 3a 27 77 2b be ed 1c 8d 3e 38 20 a5 bf
       0.0006725475 -0.16744672 0.2756113 -1.2900457
000250 c6 05 ad 3e b1 2c 02 40 a6 6d b3 be 88 a5 99 bd
       0.33793467 2.0339777 -0.35044593 -0.07502276
000260 41 90 1c bf 9d 8e 1a be d7 16 b2 bd 52 d6 d3 be
       -0.61157614 -0.15093465 -0.086957626 -0.4137445
000270 a3 ac e5 3d 8a 45 61 3d 32 5c 22 c0 57 f7 ab 3c
       0.112145685 0.05499796 -2.5368772 0.020991964
000280 00 e3 48 3b 3f 9b 8d 3d dd fb ce 3c 1a dc 0c be
       0.003065288 0.069143765 0.025266582 -0.13755837
000290 5c ef 85 3e be 00 5f 3d 5b 38 07 3e c2 20 04 3f
       0.2615918 0.054444067 0.13205092 0.51612484
0002a0 34 7e c5 3e d3 6b f8 3b a9 68 39 3f 4a 98 d4 3d
       0.38572848 0.007581213 0.72425324 0.10380609
0002b0 d5 15 c2 3e 40 3e db 3e 9f e9 2c 3e cc f7 4a bd
       0.37907282 0.4282093 0.16885994 -0.049552724
0002c0 b1 3d 1f 3e 38 b1 51 bd 7a c8 9a 3e 58 a6 a3 be
       0.15550877 -0.0511944 0.30231076 -0.31962848
0002d0 da 96 98 3e b0 26 9d 3d 01 21 21 be 94 c6 32 bf
       0.2980259 0.07673395 -0.15735246 -0.69834256
0002e0 be 9a 5a 3e ff 9e a2 bc 14 7e 11 3f f6 28 a5 be
       0.21348092 -0.019851206 0.56833005 -0.32257813
0002f0 cf cc a1 be 10 77 32 bf d6 6f ba 3f 3b a6 4a 3d
       -0.3160157 -0.69712925 1.456538 0.049474936
000300 43 ef c1 bf fb 3a 87 3f ab 65 a4 3e 35 75 32 bf
       -1.5151142 1.0564874 0.32108817 -0.69710094
000310 e8 c9 c1 3e e8 53 2c 3f a2 53 5d 3f 96 57 d6 be
       0.37849355 0.6731553 0.8645574 -0.41863698
000320 50 53 0d bf c4 05 59 be 2b a9 d7 be 2d 7a e3 3e
       -0.5520525 -0.21193606 -0.42121252 0.4442915
000330 5e 3d 49 bd e3 e5 89 be 6f 60 fa 3d 07 99 55 3d
       -0.04913079 -0.26933202 0.122254245 0.05214789
000340 f9 f8 44 3e e8 41 d8 3e 64 7e c2 3f 2c 1f f2 bd
       0.192356 0.42237782 1.5194821 -0.11822352
000350 90 65 df 3e e7 41 73 3f 0b 2b 36 3e 3f 0b 50 be
       0.43632174 0.95022434 0.17789857 -0.2031679
000360 0a 8a 39 be 4a 11 c1 3e 93 4c 1f 3f 7e f2 ae be
       -0.18119064 0.37708503 0.6222622 -0.34169382
000370 c6 a0 d9 3c 91 3e 3d bc 74 57 33 bd 31 46 0d be
       0.02656592 -0.0115505615 -0.043784574 -0.13796307
000380 f1 ea 6e 3e b0 df 09 3f 66 ee da be 23 a1 ae 3f
       0.2333181 0.53856945 -0.4276001 1.3642925
000390 9f 57 55 3e 01 03 3b bb 1a c4 04 3f d7 08 22 3d
       0.20834206 -0.0028535726 0.5186173 0.03955921
0003a0 6e 1f 82 3f 2d 71 fb 3e 32 53 3a bc 24 df 3a be
       1.0165842 0.49109784 -0.011372374 -0.18249184
0003b0 fa e8 07 3f 60 ea d6 3c 5d 7c dc 3e e2 39 e9 3e
       0.5308987 0.026234806 0.43063632 0.45551974
0003c0 d7 24 25 3e 7f c6 75 3e a0 03 2e 3e ef 77 35 3e
       0.16127335 0.24001502 0.1699357 0.17721532
0003d0 86 bd a7 3e 81 b2 a9 be dd 20 36 3e 35 46 8c 3f
       0.32761782 -0.33144 0.17785974 1.0958925
0003e0 49 b8 a9 3e 54 fe c5 bf 16 3a 1c 40 a5 cd b2 ba
       0.3314841 -1.546824 2.4410453 -0.0013641609
0003f0 3d 82 cb 3f f1 bb f9 3e 14 df b3 3d b6 53 f9 3e
       1.589912 0.487762 0.08782783 0.4869668

bias_ih_l0 f4 [80]
000000 d9 31 6a bf 8d 2d 87 bf c0 2d aa bf 0e ca 5b bf
       -0.9148231 -1.0560776 -1.3295212 -0.85855186
000010 4d 03 88 bf 0b 68 39 bf 2d 30 7f bf 0f 3e 37 bd
       -1.0626007 -0.7242438 -0.99682885 -0.044736918
000020 32 e5 77 bf a3 5e c6 3e 00 d2 53 bf 52 0b 56 bf
       -0.968341 0.38744077 -0.8274231 -0.83611023
000030 da 6e 18 bf 76 87 11 bf 62 70 55 bf 47 68 48 bf
       -0.59544146 -0.5684732 -0.8337461 -0.78284115
000040 9b 54 87 be 5b fb 85 bf 70 3d 50 3f 5b 7e 1f bf
       -0.26431736 -1.0467333 0.81343746 -0.6230218
000050 0e a9 4a bf 07 a1 23 bf 8a 7a 8a bf c8 b9 31 be
       -0.79164207 -0.63917583 -1.0818646 -0.17356026
000060 4d 8e e8 be 01 54 27 bf 01 5a 71 be 90 f1 72 3d
       -0.45421067 -0.65362555 -0.2356949 0.059312403
000070 0f 93 df be 42 08 51 bf 16 66 8b bf 68 30 27 bf
       -0.43666884 -0.81653225 -1.0890529 -0.6530824
000080 a9 30 82 3d fe e4 8f be 9e f7 d3 be 54 bb e2 be
       0.063569374 -0.28104395 -0.41399854 -0.44283545
000090 30 4d 5e 3e ca 77 87 be ca 84 89 bf 09 60 fb be
       0.21709132 -0.2645858 -1.0743649 -0.49096707
0000a0 f4 e8 df 3e 8f 81 bc be 6e b6 52 be 10 45 9f be
       0.43732417 -0.36817595 -0.20577404 -0.31107378
0000b0 3f e4 f8 be 4d ce 24 bd 2b 89 45 be 84 74 9c be
       -0.48611638 -0.040235806 -0.19290607 -0.30557644
0000c0 65 f2 99 3e 59 dd 25 bf b4 58 4b 3f 7a 48 53 bd
       0.30067745 -0.64790875 0.79432225 -0.05158279
0000d0 a6 87 fc 3e 98 3c 23 bf e7 23 b9 3e 1d 70 b9 bd
       0.49322242 -0.63764334 0.36160204 -0.09054587
0000e0 d6 41 16 be 91 2c 69 3e 7e fb 00 3f 79 e0 c0 3e
       -0.14673552 0.22770907 0.50383747 0.3767126
0000f0 83 f3 83 bf 84 f2 94 bf b6 c7 46 bf 2f 24 53 bf
       -1.0308689 -1.163651 -0.77648485 -0.82477087
000100 03 db 57 bf 08 e6 0a bf b4 46 0e bf 42 31 6d bf
       -0.8431856 -0.5425725 -0.55576634 -0.92653286
000110 76 89 4f bf 1d 60 66 3f b8 66 1e 3e 9e 02 5c bf
       -0.81069124 0.8999041 0.15468872 -0.85941494
000120 c7 bd 08 bf de 39 25 bf 38 d2 31 bf 05 34 5c bf
       -0.5341458 -0.64541423 -0.69461393 -0.86016876
000130 d3 8f 3a bf e2 e4 8d bf b4 37 f9 3e 97 4d a8 bf
       -0.7287571 -1.1085474 0.4867531 -1.3148679

bias_hh_l0 f4 [80]
000000 ef f2 89 bf f7 c1 81 bf 90 26 9d bf a5 b1 79 bf
       -1.0777262 -1.0137318 -1.2277393 -0.9753669
000010 b7 6f 82 bf b1 9f 1e bf 04 2c 31 bf c1 41 82 be
       -1.0190343 -0.6196242 -0.6920779 -0.2544079
000020 95 6c 85 bf 4a e7 02 3f f5 2d 45 bf 29 a7 4c bf
       -1.0423762 0.5113417 -0.7702325 -0.79942566
000030 d2 da 17 bf e0 9a 5b bf 4e c0 49 bf 3f 67 61 bf
       -0.5931827 -0.85783195 -0.7880906 -0.88048166
000040 5b cd 10 bf 01 57 86 bf ab b9 65 3f 22 1e 73 bf
       -0.5656335 -1.0495301 0.8973643 -0.94967854
000050 2b c1 0d bf da 8f f6 be 06 b7 85 bf 8b 52 04 bf
       -0.55372876 -0.48156625 -1.0446479 -0.5168845
000060 cc 80 25 bf 2b d6 a9 be 9e 87 0a bf 7b 5b 3b be
       -0.64649653 -0.3317121 -0.54113185 -0.18296616
000070 cb 0a 0c bf 3e 90 74 bf fd 3e 9e bf d4 69 4b bf
       -0.5470397 -0.95532596 -1.2362972 -0.79458356
000080 cd c7 bb bc ca 03 08 bf 2b 47 12 bf 6b 93 e8 be
       -0.02292242 -0.5313078 -0.57139844 -0.4542497
000090 de 5a 8f 3e d2 ac c0 be 86 c4 80 bf 79 5a 22 bf
       0.27999014 -0.3763185 -1.0059974 -0.634193
0000a0 6c ff 52 3e 3a af 9b be da cb 01 bb ab 49 f8 3c
       0.20605248 -0.30407125 -0.0019805343 0.030308565
0000b0 30 42 cc be f3 0a f0 3d aa d1 15 3e e1 03 17 bf
       -0.39894247 0.117208384 0.14630762 -0.58990294
0000c0 c1 8b 6c 3e 0e 57 1f bf 9b 65 22 3f db 72 91 bd
       0.23100187 -0.6224221 0.6343629 -0.07101985
0000d0 a7 ce 90 3e ab fa ec be 38 e0 03 3f 9a 1e 41 be
       0.28282663 -0.46284994 0.51514006 -0.1885933
0000e0 e9 6e 8a be 56 02 aa 3c 3d e9 d6 3e 3e 34 48 3e
       -0.27037743 0.020753067 0.41974822 0.19551179
0000f0 d7 dc 76 bf f0 fe 86 bf c5 67 8b bf e2 df 53 bf
       -0.96430725 -1.0546551 -1.0891043 -0.82763493
000100 e0 37 45 bf da ef 0c bf fd bf 20 bf ae c7 43 bf
       -0.77038383 -0.55053484 -0.6279295 -0.7647656
000110 3c 8f 67 bf 32 7a a5 3f cc e7 bd 3d 7f 97 5d bf
       -0.90452933 1.2927916 0.09272727 -0.8655929
000120 f8 83 1e bf 30 c4 55 bf 90 b7 3d bf f3 a1 83 bf
       -0.6192012 -0.83502483 -0.7410822 -1.0283798
000130 03 9e 8f bf 0b 49 6b bf 65 05 22 3f 64 3b 8f bf
       -1.1220096 -0.9190833 0.6328948 -1.119

weight f4 [1, 20]
000000 52 7b a6 3d 47 7f 03 3e c5 83 1e 3e 0f 84 cb 3e
       0.0812899 0.12841521 0.15479954 0.3974919
000010 ca 10 e8 bd 6d 98 ad be 87 97 18 be 7c 73 06 bf
       -0.11331327 -0.33905354 -0.14901553 -0.52519965
000020 67 12 82 3e 50 18 fa 3d 79 6b 41 be e3 f5 f0 3d
       0.25404665 0.122116685 -0.18888654 0.11765649
000030 97 63 b3 be 2b a3 89 bd cd 67 21 3e 8f 46 10 3e
       -0.3503692 -0.06720575 0.15762253 0.14089416
000040 31 44 f2 be 21 6e 94 3d 11 f0 fb be ca cd c6 3b
       -0.4731765 0.07247568 -0.49206594 0.0060670124
